…
  WARMUP_ITERS: 1000
  WARMUP_METHOD: linear
  WEIGHT_DECAY: 0.0001
  WEIGHT_DECAY_BIAS: 0.0001
  WEIGHT_DECAY_NORM: 0.0
TEST:
  AUG:
    ENABLED: False
    FLIP: True
    MAX_SIZE: 4000
    MIN_SIZES: (400, 500, 600, 700, 800, 900, 1000, 1100, 1200)
  DETECTIONS_PER_IMAGE: 3000
  EVAL_PERIOD: 500
  EXPECTED_RESULTS: []
  KEYPOINT_OKS_SIGMAS: []
  PRECISE_BN:
    ENABLED: False
    NUM_ITER: 200
VERSION: 2
VIS_PERIOD: 0
[01/11 15:18:59] detectron2.utils.env INFO: Using a generated random seed 59321157
[01/11 15:19:05] detectron2.engine.defaults INFO: Model:
GeneralizedRCNN(
  (backbone): FPN(
    (fpn_lateral2): Conv2d(
      256, 256, kernel_size=(1, 1), stride=(1, 1), bias=False
      (norm): NaiveSyncBatchNorm(256, eps=1e-05, momentum=0.1, affine=True, track_running_stats=True)
    )
    (fpn_output2): Conv2d(
      256, 256, kernel_size=(3, 3), stride=(1, 1), padding=(1, 1), bias=False
      (norm): NaiveSyncBatchNorm(256, eps=1e-05, momentum=0.1, affine=True, track_running_stats=True)
    )
    (fpn_lateral3): Conv2d(
      512, 256, kernel_size=(1, 1), stride=(1, 1), bias=False
      (norm): NaiveSyncBatchNorm(256, eps=1e-05, momentum=0.1, affine=True, track_running_stats=True)
    )
    (fpn_output3): Conv2d(
      256, 256, kernel_size=(3, 3), stride=(1, 1), padding=(1, 1), bias=False
      (norm): NaiveSyncBatchNorm(256, eps=1e-05, momentum=0.1, affine=True, track_running_stats=True)
    )
    (fpn_lateral4): Conv2d(
      1024, 256, kernel_size=(1, 1), stride=(1, 1), bias=False
      (norm): NaiveSyncBatchNorm(256, eps=1e-05, momentum=0.1, affine=True, track_running_stats=True)
    )
    (fpn_output4): Conv2d(
      256, 256, kernel_size=(3, 3), stride=(1, 1), padding=(1, 1), bias=False
      (norm): NaiveSyncBatchNorm(256, eps=1e-05, momentum=0.1, affine=True, track_running_stats=True)
    )
    (fpn_lateral5): Conv2d(
      2048, 256, kernel_size=(1, 1), stride=(1, 1), bias=False
      (norm): NaiveSyncBatchNorm(256, eps=1e-05, momentum=0.1, affine=True, track_running_stats=True)
    )
    (fpn_output5): Conv2d(
      256, 256, kernel_size=(3, 3), stride=(1, 1), padding=(1, 1), bias=False
      (norm): NaiveSyncBatchNorm(256, eps=1e-05, momentum=0.1, affine=True, track_running_stats=True)
    )
    (top_block): LastLevelMaxPool()
    (bottom_up): ResNet(
      (stem): BasicStem(
        (conv1_1): Conv2d(
          3, 64, kernel_size=(3, 3), stride=(2, 2), padding=(1, 1), bias=False
          (norm): NaiveSyncBatchNorm(64, eps=1e-05, momentum=0.1, affine=True, track_running_stats=True)
        )
        (conv1_2): Conv2d(
          64, 64, kernel_size=(3, 3), stride=(1, 1), padding=(1, 1), bias=False
          (norm): NaiveSyncBatchNorm(64, eps=1e-05, momentum=0.1, affine=True, track_running_stats=True)
        )
        (conv1_3): Conv2d(
          64, 128, kernel_size=(3, 3), stride=(1, 1), padding=(1, 1), bias=False
          (norm): NaiveSyncBatchNorm(128, eps=1e-05, momentum=0.1, affine=True, track_running_stats=True)
        )
      )
      (res2): Sequential(
        (0): BottleneckBlock(
          (shortcut_avgpool): AvgPool2d(kernel_size=1, stride=1, padding=0)
          (shortcut): Conv2d(
            128, 256, kernel_size=(1, 1), stride=(1, 1), bias=False
            (norm): NaiveSyncBatchNorm(256, eps=1e-05, momentum=0.1, affine=True, track_running_stats=True)
          )
          (conv1): Conv2d(
            128, 64, kernel_size=(1, 1), stride=(1, 1), bias=False
            (norm): NaiveSyncBatchNorm(64, eps=1e-05, momentum=0.1, affine=True, track_running_stats=True)
          )
          (conv2): SplAtConv2d(
            (conv): Conv2d(64, 128, kernel_size=(3, 3), stride=(1, 1), padding=(1, 1), groups=2, bias=False)
            (bn0): NaiveSyncBatchNorm(128, eps=1e-05, momentum=0.1, affine=True, track_running_stats=True)
            (relu): ReLU(inplace=True)
            (fc1): Conv2d(64, 32, kernel_size=(1, 1), stride=(1, 1))
            (bn1): NaiveSyncBatchNorm(32, eps=1e-05, momentum=0.1, affine=True, track_running_stats=True)
            (fc2): Conv2d(32, 128, kernel_size=(1, 1), stride=(1, 1))
            (rsoftmax): rSoftMax()
          )
          (conv3): Conv2d(
            64, 256, kernel_size=(1, 1), stride=(1, 1), bias=False
            (norm): NaiveSyncBatchNorm(256, eps=1e-05, momentum=0.1, affine=True, track_running_stats=True)
          )
        )
        (1): BottleneckBlock(
          (conv1): Conv2d(
            256, 64, kernel_size=(1, 1), stride=(1, 1), bias=False
            (norm): NaiveSyncBatchNorm(64, eps=1e-05, momentum=0.1, affine=True, track_running_stats=True)
          )
          (conv2): SplAtConv2d(
            (conv): Conv2d(64, 128, kernel_size=(3, 3), stride=(1, 1), padding=(1, 1), groups=2, bias=False)
            (bn0): NaiveSyncBatchNorm(128, eps=1e-05, momentum=0.1, affine=True, track_running_stats=True)
            (relu): ReLU(inplace=True)
            (fc1): Conv2d(64, 32, kernel_size=(1, 1), stride=(1, 1))
            (bn1): NaiveSyncBatchNorm(32, eps=1e-05, momentum=0.1, affine=True, track_running_stats=True)
            (fc2): Conv2d(32, 128, kernel_size=(1, 1), stride=(1, 1))
            (rsoftmax): rSoftMax()
          )
          (conv3): Conv2d(
            64, 256, kernel_size=(1, 1), stride=(1, 1), bias=False
            (norm): NaiveSyncBatchNorm(256, eps=1e-05, momentum=0.1, affine=True, track_running_stats=True)
          )
        )
        (2): BottleneckBlock(
          (conv1): Conv2d(
            256, 64, kernel_size=(1, 1), stride=(1, 1), bias=False
            (norm): NaiveSyncBatchNorm(64, eps=1e-05, momentum=0.1, affine=True, track_running_stats=True)
          )
          (conv2): SplAtConv2d(
            (conv): Conv2d(64, 128, kernel_size=(3, 3), stride=(1, 1), padding=(1, 1), groups=2, bias=False)
            (bn0): NaiveSyncBatchNorm(128, eps=1e-05, momentum=0.1, affine=True, track_running_stats=True)
            (relu): ReLU(inplace=True)
            (fc1): Conv2d(64, 32, kernel_size=(1, 1), stride=(1, 1))
            (bn1): NaiveSyncBatchNorm(32, eps=1e-05, momentum=0.1, affine=True, track_running_stats=True)
            (fc2): Conv2d(32, 128, kernel_size=(1, 1), stride=(1, 1))
            (rsoftmax): rSoftMax()
          )
          (conv3): Conv2d(
            64, 256, kernel_size=(1, 1), stride=(1, 1), bias=False
            (norm): NaiveSyncBatchNorm(256, eps=1e-05, momentum=0.1, affine=True, track_running_stats=True)
          )
        )
      )
      (res3): Sequential(
        (0): DeformBottleneckBlock(
          (shortcut_avgpool): AvgPool2d(kernel_size=2, stride=2, padding=0)
          (shortcut): Conv2d(
            256, 512, kernel_size=(1, 1), stride=(1, 1), bias=False
            (norm): NaiveSyncBatchNorm(512, eps=1e-05, momentum=0.1, affine=True, track_running_stats=True)
          )
          (conv1): Conv2d(
            256, 128, kernel_size=(1, 1), stride=(1, 1), bias=False
            (norm): NaiveSyncBatchNorm(128, eps=1e-05, momentum=0.1, affine=True, track_running_stats=True)
          )
          (conv2_offset): Conv2d(128, 54, kernel_size=(3, 3), stride=(1, 1), padding=(1, 1), groups=2)
          (conv2): SplAtConv2d_dcn(
            (conv): ModulatedDeformConv(in_channels=128, out_channels=256, kernel_size=(3, 3), stride=1, padding=1, dilation=1, groups=2, deformable_groups=2, bias=False)
            (bn0): NaiveSyncBatchNorm(256, eps=1e-05, momentum=0.1, affine=True, track_running_stats=True)
            (relu): ReLU(inplace=True)
            (fc1): Conv2d(128, 64, kernel_size=(1, 1), stride=(1, 1))
            (bn1): NaiveSyncBatchNorm(64, eps=1e-05, momentum=0.1, affine=True, track_running_stats=True)
            (fc2): Conv2d(64, 256, kernel_size=(1, 1), stride=(1, 1))
            (rsoftmax): rSoftMax()
          )
          (avd_layer): AvgPool2d(kernel_size=3, stride=2, padding=1)
          (conv3): Conv2d(
            128, 512, kernel_size=(1, 1), stride=(1, 1), bias=False
            (norm): NaiveSyncBatchNorm(512, eps=1e-05, momentum=0.1, affine=True, track_running_stats=True)
          )
        )
        (1): DeformBottleneckBlock(
          (conv1): Conv2d(
            512, 128, kernel_size=(1, 1), stride=(1, 1), bias=False
            (norm): NaiveSyncBatchNorm(128, eps=1e-05, momentum=0.1, affine=True, track_running_stats=True)
          )
          (conv2_offset): Conv2d(128, 54, kernel_size=(3, 3), stride=(1, 1), padding=(1, 1), groups=2)
          (conv2): SplAtConv2d_dcn(
            (conv): ModulatedDeformConv(in_channels=128, out_channels=256, kernel_size=(3, 3), stride=1, padding=1, dilation=1, groups=2, deformable_groups=2, bias=False)
            (bn0): NaiveSyncBatchNorm(256, eps=1e-05, momentum=0.1, affine=True, track_running_stats=True)
            (relu): ReLU(inplace=True)
            (fc1): Conv2d(128, 64, kernel_size=(1, 1), stride=(1, 1))
            (bn1): NaiveSyncBatchNorm(64, eps=1e-05, momentum=0.1, affine=True, track_running_stats=True)
            (fc2): Conv2d(64, 256, kernel_size=(1, 1), stride=(1, 1))
            (rsoftmax): rSoftMax()
          )
          (conv3): Conv2d(
            128, 512, kernel_size=(1, 1), stride=(1, 1), bias=False
            (norm): NaiveSyncBatchNorm(512, eps=1e-05, momentum=0.1, affine=True, track_running_stats=True)
          )
        )
        (2): DeformBottleneckBlock(
          (conv1): Conv2d(
            512, 128, kernel_size=(1, 1), stride=(1, 1), bias=False
            (norm): NaiveSyncBatchNorm(128, eps=1e-05, momentum=0.1, affine=True, track_running_stats=True)
          )
          (conv2_offset): Conv2d(128, 54, kernel_size=(3, 3), stride=(1, 1), padding=(1, 1), groups=2)
          (conv2): SplAtConv2d_dcn(
            (conv): ModulatedDeformConv(in_channels=128, out_channels=256, kernel_size=(3, 3), stride=1, padding=1, dilation=1, groups=2, deformable_groups=2, bias=False)
            (bn0): NaiveSyncBatchNorm(256, eps=1e-05, momentum=0.1, affine=True, track_running_stats=True)
            (relu): ReLU(inplace=True)
            (fc1): Conv2d(128, 64, kernel_size=(1, 1), stride=(1, 1))
            (bn1): NaiveSyncBatchNorm(64, eps=1e-05, momentum=0.1, affine=True, track_running_stats=True)
            (fc2): Conv2d(64, 256, kernel_size=(1, 1), stride=(1, 1))
            (rsoftmax): rSoftMax()
          )
          (conv3): Conv2d(
            128, 512, kernel_size=(1, 1), stride=(1, 1), bias=False
            (norm): NaiveSyncBatchNorm(512, eps=1e-05, momentum=0.1, affine=True, track_running_stats=True)
          )
        )
        (3): DeformBottleneckBlock(
          (conv1): Conv2d(
            512, 128, kernel_size=(1, 1), stride=(1, 1), bias=False
            (norm): NaiveSyncBatchNorm(128, eps=1e-05, momentum=0.1, affine=True, track_running_stats=True)
          )
          (conv2_offset): Conv2d(128, 54, kernel_size=(3, 3), stride=(1, 1), padding=(1, 1), groups=2)
          (conv2): SplAtConv2d_dcn(
            (conv): ModulatedDeformConv(in_channels=128, out_channels=256, kernel_size=(3, 3), stride=1, padding=1, dilation=1, groups=2, deformable_groups=2, bias=False)
            (bn0): NaiveSyncBatchNorm(256, eps=1e-05, momentum=0.1, affine=True, track_running_stats=True)
            (relu): ReLU(inplace=True)
            (fc1): Conv2d(128, 64, kernel_size=(1, 1), stride=(1, 1))
            (bn1): NaiveSyncBatchNorm(64, eps=1e-05, momentum=0.1, affine=True, track_running_stats=True)
            (fc2): Conv2d(64, 256, kernel_size=(1, 1), stride=(1, 1))
            (rsoftmax): rSoftMax()
          )
          (conv3): Conv2d(
            128, 512, kernel_size=(1, 1), stride=(1, 1), bias=False
            (norm): NaiveSyncBatchNorm(512, eps=1e-05, momentum=0.1, affine=True, track_running_stats=True)
          )
        )
        (4): DeformBottleneckBlock(
          (conv1): Conv2d(
            512, 128, kernel_size=(1, 1), stride=(1, 1), bias=False
            (norm): NaiveSyncBatchNorm(128, eps=1e-05, momentum=0.1, affine=True, track_running_stats=True)
          )
          (conv2_offset): Conv2d(128, 54, kernel_size=(3, 3), stride=(1, 1), padding=(1, 1), groups=2)
          (conv2): SplAtConv2d_dcn(
            (conv): ModulatedDeformConv(in_channels=128, out_channels=256, kernel_size=(3, 3), stride=1, padding=1, dilation=1, groups=2, deformable_groups=2, bias=False)
            (bn0): NaiveSyncBatchNorm(256, eps=1e-05, momentum=0.1, affine=True, track_running_stats=True)
            (relu): ReLU(inplace=True)
            (fc1): Conv2d(128, 64, kernel_size=(1, 1), stride=(1, 1))
            (bn1): NaiveSyncBatchNorm(64, eps=1e-05, momentum=0.1, affine=True, track_running_stats=True)
            (fc2): Conv2d(64, 256, kernel_size=(1, 1), stride=(1, 1))
            (rsoftmax): rSoftMax()
          )
          (conv3): Conv2d(
            128, 512, kernel_size=(1, 1), stride=(1, 1), bias=False
            (norm): NaiveSyncBatchNorm(512, eps=1e-05, momentum=0.1, affine=True, track_running_stats=True)
          )
        )
        (5): DeformBottleneckBlock(
          (conv1): Conv2d(
            512, 128, kernel_size=(1, 1), stride=(1, 1), bias=False
            (norm): NaiveSyncBatchNorm(128, eps=1e-05, momentum=0.1, affine=True, track_running_stats=True)
          )
          (conv2_offset): Conv2d(128, 54, kernel_size=(3, 3), stride=(1, 1), padding=(1, 1), groups=2)
          (conv2): SplAtConv2d_dcn(
            (conv): ModulatedDeformConv(in_channels=128, out_channels=256, kernel_size=(3, 3), stride=1, padding=1, dilation=1, groups=2, deformable_groups=2, bias=False)
            (bn0): NaiveSyncBatchNorm(256, eps=1e-05, momentum=0.1, affine=True, track_running_stats=True)
            (relu): ReLU(inplace=True)
            (fc1): Conv2d(128, 64, kernel_size=(1, 1), stride=(1, 1))
            (bn1): NaiveSyncBatchNorm(64, eps=1e-05, momentum=0.1, affine=True, track_running_stats=True)
            (fc2): Conv2d(64, 256, kernel_size=(1, 1), stride=(1, 1))
            (rsoftmax): rSoftMax()
          )
          (conv3): Conv2d(
            128, 512, kernel_size=(1, 1), stride=(1, 1), bias=False
            (norm): NaiveSyncBatchNorm(512, eps=1e-05, momentum=0.1, affine=True, track_running_stats=True)
          )
        )
        (6): DeformBottleneckBlock(
          (conv1): Conv2d(
            512, 128, kernel_size=(1, 1), stride=(1, 1), bias=False
            (norm): NaiveSyncBatchNorm(128, eps=1e-05, momentum=0.1, affine=True, track_running_stats=True)
          )
          (conv2_offset): Conv2d(128, 54, kernel_size=(3, 3), stride=(1, 1), padding=(1, 1), groups=2)
          (conv2): SplAtConv2d_dcn(
            (conv): ModulatedDeformConv(in_channels=128, out_channels=256, kernel_size=(3, 3), stride=1, padding=1, dilation=1, groups=2, deformable_groups=2, bias=False)
            (bn0): NaiveSyncBatchNorm(256, eps=1e-05, momentum=0.1, affine=True, track_running_stats=True)
            (relu): ReLU(inplace=True)
            (fc1): Conv2d(128, 64, kernel_size=(1, 1), stride=(1, 1))
            (bn1): NaiveSyncBatchNorm(64, eps=1e-05, momentum=0.1, affine=True, track_running_stats=True)
            (fc2): Conv2d(64, 256, kernel_size=(1, 1), stride=(1, 1))
            (rsoftmax): rSoftMax()
          )
          (conv3): Conv2d(
            128, 512, kernel_size=(1, 1), stride=(1, 1), bias=False
            (norm): NaiveSyncBatchNorm(512, eps=1e-05, momentum=0.1, affine=True, track_running_stats=True)
          )
        )
        (7): DeformBottleneckBlock(
          (conv1): Conv2d(
            512, 128, kernel_size=(1, 1), stride=(1, 1), bias=False
            (norm): NaiveSyncBatchNorm(128, eps=1e-05, momentum=0.1, affine=True, track_running_stats=True)
          )
          (conv2_offset): Conv2d(128, 54, kernel_size=(3, 3), stride=(1, 1), padding=(1, 1), groups=2)
          (conv2): SplAtConv2d_dcn(
            (conv): ModulatedDeformConv(in_channels=128, out_channels=256, kernel_size=(3, 3), stride=1, padding=1, dilation=1, groups=2, deformable_groups=2, bias=False)
            (bn0): NaiveSyncBatchNorm(256, eps=1e-05, momentum=0.1, affine=True, track_running_stats=True)
            (relu): ReLU(inplace=True)
            (fc1): Conv2d(128, 64, kernel_size=(1, 1), stride=(1, 1))
            (bn1): NaiveSyncBatchNorm(64, eps=1e-05, momentum=0.1, affine=True, track_running_stats=True)
            (fc2): Conv2d(64, 256, kernel_size=(1, 1), stride=(1, 1))
            (rsoftmax): rSoftMax()
          )
          (conv3): Conv2d(
            128, 512, kernel_size=(1, 1), stride=(1, 1), bias=False
            (norm): NaiveSyncBatchNorm(512, eps=1e-05, momentum=0.1, affine=True, track_running_stats=True)
          )
        )
        (8): DeformBottleneckBlock(
          (conv1): Conv2d(
            512, 128, kernel_size=(1, 1), stride=(1, 1), bias=False
            (norm): NaiveSyncBatchNorm(128, eps=1e-05, momentum=0.1, affine=True, track_running_stats=True)
          )
          (conv2_offset): Conv2d(128, 54, kernel_size=(3, 3), stride=(1, 1), padding=(1, 1), groups=2)
          (conv2): SplAtConv2d_dcn(
            (conv): ModulatedDeformConv(in_channels=128, out_channels=256, kernel_size=(3, 3), stride=1, padding=1, dilation=1, groups=2, deformable_groups=2, bias=False)
            (bn0): NaiveSyncBatchNorm(256, eps=1e-05, momentum=0.1, affine=True, track_running_stats=True)
            (relu): ReLU(inplace=True)
            (fc1): Conv2d(128, 64, kernel_size=(1, 1), stride=(1, 1))
            (bn1): NaiveSyncBatchNorm(64, eps=1e-05, momentum=0.1, affine=True, track_running_stats=True)
            (fc2): Conv2d(64, 256, kernel_size=(1, 1), stride=(1, 1))
            (rsoftmax): rSoftMax()
          )
          (conv3): Conv2d(
            128, 512, kernel_size=(1, 1), stride=(1, 1), bias=False
            (norm): NaiveSyncBatchNorm(512, eps=1e-05, momentum=0.1, affine=True, track_running_stats=True)
          )
        )
        (9): DeformBottleneckBlock(
          (conv1): Conv2d(
            512, 128, kernel_size=(1, 1), stride=(1, 1), bias=False
            (norm): NaiveSyncBatchNorm(128, eps=1e-05, momentum=0.1, affine=True, track_running_stats=True)
          )
          (conv2_offset): Conv2d(128, 54, kernel_size=(3, 3), stride=(1, 1), padding=(1, 1), groups=2)
          (conv2): SplAtConv2d_dcn(
            (conv): ModulatedDeformConv(in_channels=128, out_channels=256, kernel_size=(3, 3), stride=1, padding=1, dilation=1, groups=2, deformable_groups=2, bias=False)
            (bn0): NaiveSyncBatchNorm(256, eps=1e-05, momentum=0.1, affine=True, track_running_stats=True)
            (relu): ReLU(inplace=True)
            (fc1): Conv2d(128, 64, kernel_size=(1, 1), stride=(1, 1))
            (bn1): NaiveSyncBatchNorm(64, eps=1e-05, momentum=0.1, affine=True, track_running_stats=True)
            (fc2): Conv2d(64, 256, kernel_size=(1, 1), stride=(1, 1))
            (rsoftmax): rSoftMax()
          )
          (conv3): Conv2d(
            128, 512, kernel_size=(1, 1), stride=(1, 1), bias=False
            (norm): NaiveSyncBatchNorm(512, eps=1e-05, momentum=0.1, affine=True, track_running_stats=True)
          )
        )
        (10): DeformBottleneckBlock(
          (conv1): Conv2d(
            512, 128, kernel_size=(1, 1), stride=(1, 1), bias=False
            (norm): NaiveSyncBatchNorm(128, eps=1e-05, momentum=0.1, affine=True, track_running_stats=True)
          )
          (conv2_offset): Conv2d(128, 54, kernel_size=(3, 3), stride=(1, 1), padding=(1, 1), groups=2)
          (conv2): SplAtConv2d_dcn(
            (conv): ModulatedDeformConv(in_channels=128, out_channels=256, kernel_size=(3, 3), stride=1, padding=1, dilation=1, groups=2, deformable_groups=2, bias=False)
            (bn0): NaiveSyncBatchNorm(256, eps=1e-05, momentum=0.1, affine=True, track_running_stats=True)
            (relu): ReLU(inplace=True)
            (fc1): Conv2d(128, 64, kernel_size=(1, 1), stride=(1, 1))
            (bn1): NaiveSyncBatchNorm(64, eps=1e-05, momentum=0.1, affine=True, track_running_stats=True)
            (fc2): Conv2d(64, 256, kernel_size=(1, 1), stride=(1, 1))
            (rsoftmax): rSoftMax()
          )
          (conv3): Conv2d(
            128, 512, kernel_size=(1, 1), stride=(1, 1), bias=False
            (norm): NaiveSyncBatchNorm(512, eps=1e-05, momentum=0.1, affine=True, track_running_stats=True)
          )
        )
        (11): DeformBottleneckBlock(
          (conv1): Conv2d(
            512, 128, kernel_size=(1, 1), stride=(1, 1), bias=False
            (norm): NaiveSyncBatchNorm(128, eps=1e-05, momentum=0.1, affine=True, track_running_stats=True)
          )
          (conv2_offset): Conv2d(128, 54, kernel_size=(3, 3), stride=(1, 1), padding=(1, 1), groups=2)
          (conv2): SplAtConv2d_dcn(
            (conv): ModulatedDeformConv(in_channels=128, out_channels=256, kernel_size=(3, 3), stride=1, padding=1, dilation=1, groups=2, deformable_groups=2, bias=False)
            (bn0): NaiveSyncBatchNorm(256, eps=1e-05, momentum=0.1, affine=True, track_running_stats=True)
            (relu): ReLU(inplace=True)
            (fc1): Conv2d(128, 64, kernel_size=(1, 1), stride=(1, 1))
            (bn1): NaiveSyncBatchNorm(64, eps=1e-05, momentum=0.1, affine=True, track_running_stats=True)
            (fc2): Conv2d(64, 256, kernel_size=(1, 1), stride=(1, 1))
            (rsoftmax): rSoftMax()
          )
          (conv3): Conv2d(
            128, 512, kernel_size=(1, 1), stride=(1, 1), bias=False
            (norm): NaiveSyncBatchNorm(512, eps=1e-05, momentum=0.1, affine=True, track_running_stats=True)
          )
        )
        (12): DeformBottleneckBlock(
          (conv1): Conv2d(
            512, 128, kernel_size=(1, 1), stride=(1, 1), bias=False
            (norm): NaiveSyncBatchNorm(128, eps=1e-05, momentum=0.1, affine=True, track_running_stats=True)
          )
          (conv2_offset): Conv2d(128, 54, kernel_size=(3, 3), stride=(1, 1), padding=(1, 1), groups=2)
          (conv2): SplAtConv2d_dcn(
            (conv): ModulatedDeformConv(in_channels=128, out_channels=256, kernel_size=(3, 3), stride=1, padding=1, dilation=1, groups=2, deformable_groups=2, bias=False)
            (bn0): NaiveSyncBatchNorm(256, eps=1e-05, momentum=0.1, affine=True, track_running_stats=True)
            (relu): ReLU(inplace=True)
            (fc1): Conv2d(128, 64, kernel_size=(1, 1), stride=(1, 1))
            (bn1): NaiveSyncBatchNorm(64, eps=1e-05, momentum=0.1, affine=True, track_running_stats=True)
            (fc2): Conv2d(64, 256, kernel_size=(1, 1), stride=(1, 1))
            (rsoftmax): rSoftMax()
          )
          (conv3): Conv2d(
            128, 512, kernel_size=(1, 1), stride=(1, 1), bias=False
            (norm): NaiveSyncBatchNorm(512, eps=1e-05, momentum=0.1, affine=True, track_running_stats=True)
          )
        )
        (13): DeformBottleneckBlock(
          (conv1): Conv2d(
            512, 128, kernel_size=(1, 1), stride=(1, 1), bias=False
            (norm): NaiveSyncBatchNorm(128, eps=1e-05, momentum=0.1, affine=True, track_running_stats=True)
          )
          (conv2_offset): Conv2d(128, 54, kernel_size=(3, 3), stride=(1, 1), padding=(1, 1), groups=2)
          (conv2): SplAtConv2d_dcn(
            (conv): ModulatedDeformConv(in_channels=128, out_channels=256, kernel_size=(3, 3), stride=1, padding=1, dilation=1, groups=2, deformable_groups=2, bias=False)
            (bn0): NaiveSyncBatchNorm(256, eps=1e-05, momentum=0.1, affine=True, track_running_stats=True)
            (relu): ReLU(inplace=True)
            (fc1): Conv2d(128, 64, kernel_size=(1, 1), stride=(1, 1))
            (bn1): NaiveSyncBatchNorm(64, eps=1e-05, momentum=0.1, affine=True, track_running_stats=True)
            (fc2): Conv2d(64, 256, kernel_size=(1, 1), stride=(1, 1))
            (rsoftmax): rSoftMax()
          )
          (conv3): Conv2d(
            128, 512, kernel_size=(1, 1), stride=(1, 1), bias=False
            (norm): NaiveSyncBatchNorm(512, eps=1e-05, momentum=0.1, affine=True, track_running_stats=True)
          )
        )
        (14): DeformBottleneckBlock(
          (conv1): Conv2d(
            512, 128, kernel_size=(1, 1), stride=(1, 1), bias=False
            (norm): NaiveSyncBatchNorm(128, eps=1e-05, momentum=0.1, affine=True, track_running_stats=True)
          )
          (conv2_offset): Conv2d(128, 54, kernel_size=(3, 3), stride=(1, 1), padding=(1, 1), groups=2)
          (conv2): SplAtConv2d_dcn(
            (conv): ModulatedDeformConv(in_channels=128, out_channels=256, kernel_size=(3, 3), stride=1, padding=1, dilation=1, groups=2, deformable_groups=2, bias=False)
            (bn0): NaiveSyncBatchNorm(256, eps=1e-05, momentum=0.1, affine=True, track_running_stats=True)
            (relu): ReLU(inplace=True)
            (fc1): Conv2d(128, 64, kernel_size=(1, 1), stride=(1, 1))
            (bn1): NaiveSyncBatchNorm(64, eps=1e-05, momentum=0.1, affine=True, track_running_stats=True)
            (fc2): Conv2d(64, 256, kernel_size=(1, 1), stride=(1, 1))
            (rsoftmax): rSoftMax()
          )
          (conv3): Conv2d(
            128, 512, kernel_size=(1, 1), stride=(1, 1), bias=False
            (norm): NaiveSyncBatchNorm(512, eps=1e-05, momentum=0.1, affine=True, track_running_stats=True)
          )
        )
        (15): DeformBottleneckBlock(
          (conv1): Conv2d(
            512, 128, kernel_size=(1, 1), stride=(1, 1), bias=False
            (norm): NaiveSyncBatchNorm(128, eps=1e-05, momentum=0.1, affine=True, track_running_stats=True)
          )
          (conv2_offset): Conv2d(128, 54, kernel_size=(3, 3), stride=(1, 1), padding=(1, 1), groups=2)
          (conv2): SplAtConv2d_dcn(
            (conv): ModulatedDeformConv(in_channels=128, out_channels=256, kernel_size=(3, 3), stride=1, padding=1, dilation=1, groups=2, deformable_groups=2, bias=False)
            (bn0): NaiveSyncBatchNorm(256, eps=1e-05, momentum=0.1, affine=True, track_running_stats=True)
            (relu): ReLU(inplace=True)
            (fc1): Conv2d(128, 64, kernel_size=(1, 1), stride=(1, 1))
            (bn1): NaiveSyncBatchNorm(64, eps=1e-05, momentum=0.1, affine=True, track_running_stats=True)
            (fc2): Conv2d(64, 256, kernel_size=(1, 1), stride=(1, 1))
            (rsoftmax): rSoftMax()
          )
          (conv3): Conv2d(
            128, 512, kernel_size=(1, 1), stride=(1, 1), bias=False
            (norm): NaiveSyncBatchNorm(512, eps=1e-05, momentum=0.1, affine=True, track_running_stats=True)
          )
        )
        (16): DeformBottleneckBlock(
          (conv1): Conv2d(
            512, 128, kernel_size=(1, 1), stride=(1, 1), bias=False
            (norm): NaiveSyncBatchNorm(128, eps=1e-05, momentum=0.1, affine=True, track_running_stats=True)
          )
          (conv2_offset): Conv2d(128, 54, kernel_size=(3, 3), stride=(1, 1), padding=(1, 1), groups=2)
          (conv2): SplAtConv2d_dcn(
            (conv): ModulatedDeformConv(in_channels=128, out_channels=256, kernel_size=(3, 3), stride=1, padding=1, dilation=1, groups=2, deformable_groups=2, bias=False)
            (bn0): NaiveSyncBatchNorm(256, eps=1e-05, momentum=0.1, affine=True, track_running_stats=True)
            (relu): ReLU(inplace=True)
            (fc1): Conv2d(128, 64, kernel_size=(1, 1), stride=(1, 1))
            (bn1): NaiveSyncBatchNorm(64, eps=1e-05, momentum=0.1, affine=True, track_running_stats=True)
            (fc2): Conv2d(64, 256, kernel_size=(1, 1), stride=(1, 1))
            (rsoftmax): rSoftMax()
          )
          (conv3): Conv2d(
            128, 512, kernel_size=(1, 1), stride=(1, 1), bias=False
            (norm): NaiveSyncBatchNorm(512, eps=1e-05, momentum=0.1, affine=True, track_running_stats=True)
          )
        )
        (17): DeformBottleneckBlock(
          (conv1): Conv2d(
            512, 128, kernel_size=(1, 1), stride=(1, 1), bias=False
            (norm): NaiveSyncBatchNorm(128, eps=1e-05, momentum=0.1, affine=True, track_running_stats=True)
          )
          (conv2_offset): Conv2d(128, 54, kernel_size=(3, 3), stride=(1, 1), padding=(1, 1), groups=2)
          (conv2): SplAtConv2d_dcn(
            (conv): ModulatedDeformConv(in_channels=128, out_channels=256, kernel_size=(3, 3), stride=1, padding=1, dilation=1, groups=2, deformable_groups=2, bias=False)
            (bn0): NaiveSyncBatchNorm(256, eps=1e-05, momentum=0.1, affine=True, track_running_stats=True)
            (relu): ReLU(inplace=True)
            (fc1): Conv2d(128, 64, kernel_size=(1, 1), stride=(1, 1))
            (bn1): NaiveSyncBatchNorm(64, eps=1e-05, momentum=0.1, affine=True, track_running_stats=True)
            (fc2): Conv2d(64, 256, kernel_size=(1, 1), stride=(1, 1))
            (rsoftmax): rSoftMax()
          )
          (conv3): Conv2d(
            128, 512, kernel_size=(1, 1), stride=(1, 1), bias=False
            (norm): NaiveSyncBatchNorm(512, eps=1e-05, momentum=0.1, affine=True, track_running_stats=True)
          )
        )
        (18): DeformBottleneckBlock(
          (conv1): Conv2d(
            512, 128, kernel_size=(1, 1), stride=(1, 1), bias=False
            (norm): NaiveSyncBatchNorm(128, eps=1e-05, momentum=0.1, affine=True, track_running_stats=True)
          )
          (conv2_offset): Conv2d(128, 54, kernel_size=(3, 3), stride=(1, 1), padding=(1, 1), groups=2)
          (conv2): SplAtConv2d_dcn(
            (conv): ModulatedDeformConv(in_channels=128, out_channels=256, kernel_size=(3, 3), stride=1, padding=1, dilation=1, groups=2, deformable_groups=2, bias=False)
            (bn0): NaiveSyncBatchNorm(256, eps=1e-05, momentum=0.1, affine=True, track_running_stats=True)
            (relu): ReLU(inplace=True)
            (fc1): Conv2d(128, 64, kernel_size=(1, 1), stride=(1, 1))
            (bn1): NaiveSyncBatchNorm(64, eps=1e-05, momentum=0.1, affine=True, track_running_stats=True)
            (fc2): Conv2d(64, 256, kernel_size=(1, 1), stride=(1, 1))
            (rsoftmax): rSoftMax()
          )
          (conv3): Conv2d(
            128, 512, kernel_size=(1, 1), stride=(1, 1), bias=False
            (norm): NaiveSyncBatchNorm(512, eps=1e-05, momentum=0.1, affine=True, track_running_stats=True)
          )
        )
        (19): DeformBottleneckBlock(
          (conv1): Conv2d(
            512, 128, kernel_size=(1, 1), stride=(1, 1), bias=False
            (norm): NaiveSyncBatchNorm(128, eps=1e-05, momentum=0.1, affine=True, track_running_stats=True)
          )
          (conv2_offset): Conv2d(128, 54, kernel_size=(3, 3), stride=(1, 1), padding=(1, 1), groups=2)
          (conv2): SplAtConv2d_dcn(
            (conv): ModulatedDeformConv(in_channels=128, out_channels=256, kernel_size=(3, 3), stride=1, padding=1, dilation=1, groups=2, deformable_groups=2, bias=False)
            (bn0): NaiveSyncBatchNorm(256, eps=1e-05, momentum=0.1, affine=True, track_running_stats=True)
            (relu): ReLU(inplace=True)
            (fc1): Conv2d(128, 64, kernel_size=(1, 1), stride=(1, 1))
            (bn1): NaiveSyncBatchNorm(64, eps=1e-05, momentum=0.1, affine=True, track_running_stats=True)
            (fc2): Conv2d(64, 256, kernel_size=(1, 1), stride=(1, 1))
            (rsoftmax): rSoftMax()
          )
          (conv3): Conv2d(
            128, 512, kernel_size=(1, 1), stride=(1, 1), bias=False
            (norm): NaiveSyncBatchNorm(512, eps=1e-05, momentum=0.1, affine=True, track_running_stats=True)
          )
        )
        (20): DeformBottleneckBlock(
          (conv1): Conv2d(
            512, 128, kernel_size=(1, 1), stride=(1, 1), bias=False
            (norm): NaiveSyncBatchNorm(128, eps=1e-05, momentum=0.1, affine=True, track_running_stats=True)
          )
          (conv2_offset): Conv2d(128, 54, kernel_size=(3, 3), stride=(1, 1), padding=(1, 1), groups=2)
          (conv2): SplAtConv2d_dcn(
            (conv): ModulatedDeformConv(in_channels=128, out_channels=256, kernel_size=(3, 3), stride=1, padding=1, dilation=1, groups=2, deformable_groups=2, bias=False)
            (bn0): NaiveSyncBatchNorm(256, eps=1e-05, momentum=0.1, affine=True, track_running_stats=True)
            (relu): ReLU(inplace=True)
            (fc1): Conv2d(128, 64, kernel_size=(1, 1), stride=(1, 1))
            (bn1): NaiveSyncBatchNorm(64, eps=1e-05, momentum=0.1, affine=True, track_running_stats=True)
            (fc2): Conv2d(64, 256, kernel_size=(1, 1), stride=(1, 1))
            (rsoftmax): rSoftMax()
          )
          (conv3): Conv2d(
            128, 512, kernel_size=(1, 1), stride=(1, 1), bias=False
            (norm): NaiveSyncBatchNorm(512, eps=1e-05, momentum=0.1, affine=True, track_running_stats=True)
          )
        )
        (21): DeformBottleneckBlock(
          (conv1): Conv2d(
            512, 128, kernel_size=(1, 1), stride=(1, 1), bias=False
            (norm): NaiveSyncBatchNorm(128, eps=1e-05, momentum=0.1, affine=True, track_running_stats=True)
          )
          (conv2_offset): Conv2d(128, 54, kernel_size=(3, 3), stride=(1, 1), padding=(1, 1), groups=2)
          (conv2): SplAtConv2d_dcn(
            (conv): ModulatedDeformConv(in_channels=128, out_channels=256, kernel_size=(3, 3), stride=1, padding=1, dilation=1, groups=2, deformable_groups=2, bias=False)
            (bn0): NaiveSyncBatchNorm(256, eps=1e-05, momentum=0.1, affine=True, track_running_stats=True)
            (relu): ReLU(inplace=True)
            (fc1): Conv2d(128, 64, kernel_size=(1, 1), stride=(1, 1))
            (bn1): NaiveSyncBatchNorm(64, eps=1e-05, momentum=0.1, affine=True, track_running_stats=True)
            (fc2): Conv2d(64, 256, kernel_size=(1, 1), stride=(1, 1))
            (rsoftmax): rSoftMax()
          )
          (conv3): Conv2d(
            128, 512, kernel_size=(1, 1), stride=(1, 1), bias=False
            (norm): NaiveSyncBatchNorm(512, eps=1e-05, momentum=0.1, affine=True, track_running_stats=True)
          )
        )
        (22): DeformBottleneckBlock(
          (conv1): Conv2d(
            512, 128, kernel_size=(1, 1), stride=(1, 1), bias=False
            (norm): NaiveSyncBatchNorm(128, eps=1e-05, momentum=0.1, affine=True, track_running_stats=True)
          )
          (conv2_offset): Conv2d(128, 54, kernel_size=(3, 3), stride=(1, 1), padding=(1, 1), groups=2)
          (conv2): SplAtConv2d_dcn(
            (conv): ModulatedDeformConv(in_channels=128, out_channels=256, kernel_size=(3, 3), stride=1, padding=1, dilation=1, groups=2, deformable_groups=2, bias=False)
            (bn0): NaiveSyncBatchNorm(256, eps=1e-05, momentum=0.1, affine=True, track_running_stats=True)
            (relu): ReLU(inplace=True)
            (fc1): Conv2d(128, 64, kernel_size=(1, 1), stride=(1, 1))
            (bn1): NaiveSyncBatchNorm(64, eps=1e-05, momentum=0.1, affine=True, track_running_stats=True)
            (fc2): Conv2d(64, 256, kernel_size=(1, 1), stride=(1, 1))
            (rsoftmax): rSoftMax()
          )
          (conv3): Conv2d(
            128, 512, kernel_size=(1, 1), stride=(1, 1), bias=False
            (norm): NaiveSyncBatchNorm(512, eps=1e-05, momentum=0.1, affine=True, track_running_stats=True)
          )
        )
        (23): DeformBottleneckBlock(
          (conv1): Conv2d(
            512, 128, kernel_size=(1, 1), stride=(1, 1), bias=False
            (norm): NaiveSyncBatchNorm(128, eps=1e-05, momentum=0.1, affine=True, track_running_stats=True)
          )
          (conv2_offset): Conv2d(128, 54, kernel_size=(3, 3), stride=(1, 1), padding=(1, 1), groups=2)
          (conv2): SplAtConv2d_dcn(
            (conv): ModulatedDeformConv(in_channels=128, out_channels=256, kernel_size=(3, 3), stride=1, padding=1, dilation=1, groups=2, deformable_groups=2, bias=False)
            (bn0): NaiveSyncBatchNorm(256, eps=1e-05, momentum=0.1, affine=True, track_running_stats=True)
            (relu): ReLU(inplace=True)
            (fc1): Conv2d(128, 64, kernel_size=(1, 1), stride=(1, 1))
            (bn1): NaiveSyncBatchNorm(64, eps=1e-05, momentum=0.1, affine=True, track_running_stats=True)
            (fc2): Conv2d(64, 256, kernel_size=(1, 1), stride=(1, 1))
            (rsoftmax): rSoftMax()
          )
          (conv3): Conv2d(
            128, 512, kernel_size=(1, 1), stride=(1, 1), bias=False
            (norm): NaiveSyncBatchNorm(512, eps=1e-05, momentum=0.1, affine=True, track_running_stats=True)
          )
        )
      )
      (res4): Sequential(
        (0): DeformBottleneckBlock(
          (shortcut_avgpool): AvgPool2d(kernel_size=2, stride=2, padding=0)
          (shortcut): Conv2d(
            512, 1024, kernel_size=(1, 1), stride=(1, 1), bias=False
            (norm): NaiveSyncBatchNorm(1024, eps=1e-05, momentum=0.1, affine=True, track_running_stats=True)
          )
          (conv1): Conv2d(
            512, 256, kernel_size=(1, 1), stride=(1, 1), bias=False
            (norm): NaiveSyncBatchNorm(256, eps=1e-05, momentum=0.1, affine=True, track_running_stats=True)
          )
          (conv2_offset): Conv2d(256, 54, kernel_size=(3, 3), stride=(1, 1), padding=(1, 1), groups=2)
          (conv2): SplAtConv2d_dcn(
            (conv): ModulatedDeformConv(in_channels=256, out_channels=512, kernel_size=(3, 3), stride=1, padding=1, dilation=1, groups=2, deformable_groups=2, bias=False)
            (bn0): NaiveSyncBatchNorm(512, eps=1e-05, momentum=0.1, affine=True, track_running_stats=True)
            (relu): ReLU(inplace=True)
            (fc1): Conv2d(256, 128, kernel_size=(1, 1), stride=(1, 1))
            (bn1): NaiveSyncBatchNorm(128, eps=1e-05, momentum=0.1, affine=True, track_running_stats=True)
            (fc2): Conv2d(128, 512, kernel_size=(1, 1), stride=(1, 1))
            (rsoftmax): rSoftMax()
          )
          (avd_layer): AvgPool2d(kernel_size=3, stride=2, padding=1)
          (conv3): Conv2d(
            256, 1024, kernel_size=(1, 1), stride=(1, 1), bias=False
            (norm): NaiveSyncBatchNorm(1024, eps=1e-05, momentum=0.1, affine=True, track_running_stats=True)
          )
        )
        (1): DeformBottleneckBlock(
          (conv1): Conv2d(
            1024, 256, kernel_size=(1, 1), stride=(1, 1), bias=False
            (norm): NaiveSyncBatchNorm(256, eps=1e-05, momentum=0.1, affine=True, track_running_stats=True)
          )
          (conv2_offset): Conv2d(256, 54, kernel_size=(3, 3), stride=(1, 1), padding=(1, 1), groups=2)
          (conv2): SplAtConv2d_dcn(
            (conv): ModulatedDeformConv(in_channels=256, out_channels=512, kernel_size=(3, 3), stride=1, padding=1, dilation=1, groups=2, deformable_groups=2, bias=False)
            (bn0): NaiveSyncBatchNorm(512, eps=1e-05, momentum=0.1, affine=True, track_running_stats=True)
            (relu): ReLU(inplace=True)
            (fc1): Conv2d(256, 128, kernel_size=(1, 1), stride=(1, 1))
            (bn1): NaiveSyncBatchNorm(128, eps=1e-05, momentum=0.1, affine=True, track_running_stats=True)
            (fc2): Conv2d(128, 512, kernel_size=(1, 1), stride=(1, 1))
            (rsoftmax): rSoftMax()
          )
          (conv3): Conv2d(
            256, 1024, kernel_size=(1, 1), stride=(1, 1), bias=False
            (norm): NaiveSyncBatchNorm(1024, eps=1e-05, momentum=0.1, affine=True, track_running_stats=True)
          )
        )
        (2): DeformBottleneckBlock(
          (conv1): Conv2d(
            1024, 256, kernel_size=(1, 1), stride=(1, 1), bias=False
            (norm): NaiveSyncBatchNorm(256, eps=1e-05, momentum=0.1, affine=True, track_running_stats=True)
          )
          (conv2_offset): Conv2d(256, 54, kernel_size=(3, 3), stride=(1, 1), padding=(1, 1), groups=2)
          (conv2): SplAtConv2d_dcn(
            (conv): ModulatedDeformConv(in_channels=256, out_channels=512, kernel_size=(3, 3), stride=1, padding=1, dilation=1, groups=2, deformable_groups=2, bias=False)
            (bn0): NaiveSyncBatchNorm(512, eps=1e-05, momentum=0.1, affine=True, track_running_stats=True)
            (relu): ReLU(inplace=True)
            (fc1): Conv2d(256, 128, kernel_size=(1, 1), stride=(1, 1))
            (bn1): NaiveSyncBatchNorm(128, eps=1e-05, momentum=0.1, affine=True, track_running_stats=True)
            (fc2): Conv2d(128, 512, kernel_size=(1, 1), stride=(1, 1))
            (rsoftmax): rSoftMax()
          )
          (conv3): Conv2d(
            256, 1024, kernel_size=(1, 1), stride=(1, 1), bias=False
            (norm): NaiveSyncBatchNorm(1024, eps=1e-05, momentum=0.1, affine=True, track_running_stats=True)
          )
        )
        (3): DeformBottleneckBlock(
          (conv1): Conv2d(
            1024, 256, kernel_size=(1, 1), stride=(1, 1), bias=False
            (norm): NaiveSyncBatchNorm(256, eps=1e-05, momentum=0.1, affine=True, track_running_stats=True)
          )
          (conv2_offset): Conv2d(256, 54, kernel_size=(3, 3), stride=(1, 1), padding=(1, 1), groups=2)
          (conv2): SplAtConv2d_dcn(
            (conv): ModulatedDeformConv(in_channels=256, out_channels=512, kernel_size=(3, 3), stride=1, padding=1, dilation=1, groups=2, deformable_groups=2, bias=False)
            (bn0): NaiveSyncBatchNorm(512, eps=1e-05, momentum=0.1, affine=True, track_running_stats=True)
            (relu): ReLU(inplace=True)
            (fc1): Conv2d(256, 128, kernel_size=(1, 1), stride=(1, 1))
            (bn1): NaiveSyncBatchNorm(128, eps=1e-05, momentum=0.1, affine=True, track_running_stats=True)
            (fc2): Conv2d(128, 512, kernel_size=(1, 1), stride=(1, 1))
            (rsoftmax): rSoftMax()
          )
          (conv3): Conv2d(
            256, 1024, kernel_size=(1, 1), stride=(1, 1), bias=False
            (norm): NaiveSyncBatchNorm(1024, eps=1e-05, momentum=0.1, affine=True, track_running_stats=True)
          )
        )
        (4): DeformBottleneckBlock(
          (conv1): Conv2d(
            1024, 256, kernel_size=(1, 1), stride=(1, 1), bias=False
            (norm): NaiveSyncBatchNorm(256, eps=1e-05, momentum=0.1, affine=True, track_running_stats=True)
          )
          (conv2_offset): Conv2d(256, 54, kernel_size=(3, 3), stride=(1, 1), padding=(1, 1), groups=2)
          (conv2): SplAtConv2d_dcn(
            (conv): ModulatedDeformConv(in_channels=256, out_channels=512, kernel_size=(3, 3), stride=1, padding=1, dilation=1, groups=2, deformable_groups=2, bias=False)
            (bn0): NaiveSyncBatchNorm(512, eps=1e-05, momentum=0.1, affine=True, track_running_stats=True)
            (relu): ReLU(inplace=True)
            (fc1): Conv2d(256, 128, kernel_size=(1, 1), stride=(1, 1))
            (bn1): NaiveSyncBatchNorm(128, eps=1e-05, momentum=0.1, affine=True, track_running_stats=True)
            (fc2): Conv2d(128, 512, kernel_size=(1, 1), stride=(1, 1))
            (rsoftmax): rSoftMax()
          )
          (conv3): Conv2d(
            256, 1024, kernel_size=(1, 1), stride=(1, 1), bias=False
            (norm): NaiveSyncBatchNorm(1024, eps=1e-05, momentum=0.1, affine=True, track_running_stats=True)
          )
        )
        (5): DeformBottleneckBlock(
          (conv1): Conv2d(
            1024, 256, kernel_size=(1, 1), stride=(1, 1), bias=False
            (norm): NaiveSyncBatchNorm(256, eps=1e-05, momentum=0.1, affine=True, track_running_stats=True)
          )
          (conv2_offset): Conv2d(256, 54, kernel_size=(3, 3), stride=(1, 1), padding=(1, 1), groups=2)
          (conv2): SplAtConv2d_dcn(
            (conv): ModulatedDeformConv(in_channels=256, out_channels=512, kernel_size=(3, 3), stride=1, padding=1, dilation=1, groups=2, deformable_groups=2, bias=False)
            (bn0): NaiveSyncBatchNorm(512, eps=1e-05, momentum=0.1, affine=True, track_running_stats=True)
            (relu): ReLU(inplace=True)
            (fc1): Conv2d(256, 128, kernel_size=(1, 1), stride=(1, 1))
            (bn1): NaiveSyncBatchNorm(128, eps=1e-05, momentum=0.1, affine=True, track_running_stats=True)
            (fc2): Conv2d(128, 512, kernel_size=(1, 1), stride=(1, 1))
            (rsoftmax): rSoftMax()
          )
          (conv3): Conv2d(
            256, 1024, kernel_size=(1, 1), stride=(1, 1), bias=False
            (norm): NaiveSyncBatchNorm(1024, eps=1e-05, momentum=0.1, affine=True, track_running_stats=True)
          )
        )
        (6): DeformBottleneckBlock(
          (conv1): Conv2d(
            1024, 256, kernel_size=(1, 1), stride=(1, 1), bias=False
            (norm): NaiveSyncBatchNorm(256, eps=1e-05, momentum=0.1, affine=True, track_running_stats=True)
          )
          (conv2_offset): Conv2d(256, 54, kernel_size=(3, 3), stride=(1, 1), padding=(1, 1), groups=2)
          (conv2): SplAtConv2d_dcn(
            (conv): ModulatedDeformConv(in_channels=256, out_channels=512, kernel_size=(3, 3), stride=1, padding=1, dilation=1, groups=2, deformable_groups=2, bias=False)
            (bn0): NaiveSyncBatchNorm(512, eps=1e-05, momentum=0.1, affine=True, track_running_stats=True)
            (relu): ReLU(inplace=True)
            (fc1): Conv2d(256, 128, kernel_size=(1, 1), stride=(1, 1))
            (bn1): NaiveSyncBatchNorm(128, eps=1e-05, momentum=0.1, affine=True, track_running_stats=True)
            (fc2): Conv2d(128, 512, kernel_size=(1, 1), stride=(1, 1))
            (rsoftmax): rSoftMax()
          )
          (conv3): Conv2d(
            256, 1024, kernel_size=(1, 1), stride=(1, 1), bias=False
            (norm): NaiveSyncBatchNorm(1024, eps=1e-05, momentum=0.1, affine=True, track_running_stats=True)
          )
        )
        (7): DeformBottleneckBlock(
          (conv1): Conv2d(
            1024, 256, kernel_size=(1, 1), stride=(1, 1), bias=False
            (norm): NaiveSyncBatchNorm(256, eps=1e-05, momentum=0.1, affine=True, track_running_stats=True)
          )
          (conv2_offset): Conv2d(256, 54, kernel_size=(3, 3), stride=(1, 1), padding=(1, 1), groups=2)
          (conv2): SplAtConv2d_dcn(
            (conv): ModulatedDeformConv(in_channels=256, out_channels=512, kernel_size=(3, 3), stride=1, padding=1, dilation=1, groups=2, deformable_groups=2, bias=False)
            (bn0): NaiveSyncBatchNorm(512, eps=1e-05, momentum=0.1, affine=True, track_running_stats=True)
            (relu): ReLU(inplace=True)
            (fc1): Conv2d(256, 128, kernel_size=(1, 1), stride=(1, 1))
            (bn1): NaiveSyncBatchNorm(128, eps=1e-05, momentum=0.1, affine=True, track_running_stats=True)
            (fc2): Conv2d(128, 512, kernel_size=(1, 1), stride=(1, 1))
            (rsoftmax): rSoftMax()
          )
          (conv3): Conv2d(
            256, 1024, kernel_size=(1, 1), stride=(1, 1), bias=False
            (norm): NaiveSyncBatchNorm(1024, eps=1e-05, momentum=0.1, affine=True, track_running_stats=True)
          )
        )
        (8): DeformBottleneckBlock(
          (conv1): Conv2d(
            1024, 256, kernel_size=(1, 1), stride=(1, 1), bias=False
            (norm): NaiveSyncBatchNorm(256, eps=1e-05, momentum=0.1, affine=True, track_running_stats=True)
          )
          (conv2_offset): Conv2d(256, 54, kernel_size=(3, 3), stride=(1, 1), padding=(1, 1), groups=2)
          (conv2): SplAtConv2d_dcn(
            (conv): ModulatedDeformConv(in_channels=256, out_channels=512, kernel_size=(3, 3), stride=1, padding=1, dilation=1, groups=2, deformable_groups=2, bias=False)
            (bn0): NaiveSyncBatchNorm(512, eps=1e-05, momentum=0.1, affine=True, track_running_stats=True)
            (relu): ReLU(inplace=True)
            (fc1): Conv2d(256, 128, kernel_size=(1, 1), stride=(1, 1))
            (bn1): NaiveSyncBatchNorm(128, eps=1e-05, momentum=0.1, affine=True, track_running_stats=True)
            (fc2): Conv2d(128, 512, kernel_size=(1, 1), stride=(1, 1))
            (rsoftmax): rSoftMax()
          )
          (conv3): Conv2d(
            256, 1024, kernel_size=(1, 1), stride=(1, 1), bias=False
            (norm): NaiveSyncBatchNorm(1024, eps=1e-05, momentum=0.1, affine=True, track_running_stats=True)
          )
        )
        (9): DeformBottleneckBlock(
          (conv1): Conv2d(
            1024, 256, kernel_size=(1, 1), stride=(1, 1), bias=False
            (norm): NaiveSyncBatchNorm(256, eps=1e-05, momentum=0.1, affine=True, track_running_stats=True)
          )
          (conv2_offset): Conv2d(256, 54, kernel_size=(3, 3), stride=(1, 1), padding=(1, 1), groups=2)
          (conv2): SplAtConv2d_dcn(
            (conv): ModulatedDeformConv(in_channels=256, out_channels=512, kernel_size=(3, 3), stride=1, padding=1, dilation=1, groups=2, deformable_groups=2, bias=False)
            (bn0): NaiveSyncBatchNorm(512, eps=1e-05, momentum=0.1, affine=True, track_running_stats=True)
            (relu): ReLU(inplace=True)
            (fc1): Conv2d(256, 128, kernel_size=(1, 1), stride=(1, 1))
            (bn1): NaiveSyncBatchNorm(128, eps=1e-05, momentum=0.1, affine=True, track_running_stats=True)
            (fc2): Conv2d(128, 512, kernel_size=(1, 1), stride=(1, 1))
            (rsoftmax): rSoftMax()
          )
          (conv3): Conv2d(
            256, 1024, kernel_size=(1, 1), stride=(1, 1), bias=False
            (norm): NaiveSyncBatchNorm(1024, eps=1e-05, momentum=0.1, affine=True, track_running_stats=True)
          )
        )
        (10): DeformBottleneckBlock(
          (conv1): Conv2d(
            1024, 256, kernel_size=(1, 1), stride=(1, 1), bias=False
            (norm): NaiveSyncBatchNorm(256, eps=1e-05, momentum=0.1, affine=True, track_running_stats=True)
          )
          (conv2_offset): Conv2d(256, 54, kernel_size=(3, 3), stride=(1, 1), padding=(1, 1), groups=2)
          (conv2): SplAtConv2d_dcn(
            (conv): ModulatedDeformConv(in_channels=256, out_channels=512, kernel_size=(3, 3), stride=1, padding=1, dilation=1, groups=2, deformable_groups=2, bias=False)
            (bn0): NaiveSyncBatchNorm(512, eps=1e-05, momentum=0.1, affine=True, track_running_stats=True)
            (relu): ReLU(inplace=True)
            (fc1): Conv2d(256, 128, kernel_size=(1, 1), stride=(1, 1))
            (bn1): NaiveSyncBatchNorm(128, eps=1e-05, momentum=0.1, affine=True, track_running_stats=True)
            (fc2): Conv2d(128, 512, kernel_size=(1, 1), stride=(1, 1))
            (rsoftmax): rSoftMax()
          )
          (conv3): Conv2d(
            256, 1024, kernel_size=(1, 1), stride=(1, 1), bias=False
            (norm): NaiveSyncBatchNorm(1024, eps=1e-05, momentum=0.1, affine=True, track_running_stats=True)
          )
        )
        (11): DeformBottleneckBlock(
          (conv1): Conv2d(
            1024, 256, kernel_size=(1, 1), stride=(1, 1), bias=False
            (norm): NaiveSyncBatchNorm(256, eps=1e-05, momentum=0.1, affine=True, track_running_stats=True)
          )
          (conv2_offset): Conv2d(256, 54, kernel_size=(3, 3), stride=(1, 1), padding=(1, 1), groups=2)
          (conv2): SplAtConv2d_dcn(
            (conv): ModulatedDeformConv(in_channels=256, out_channels=512, kernel_size=(3, 3), stride=1, padding=1, dilation=1, groups=2, deformable_groups=2, bias=False)
            (bn0): NaiveSyncBatchNorm(512, eps=1e-05, momentum=0.1, affine=True, track_running_stats=True)
            (relu): ReLU(inplace=True)
            (fc1): Conv2d(256, 128, kernel_size=(1, 1), stride=(1, 1))
            (bn1): NaiveSyncBatchNorm(128, eps=1e-05, momentum=0.1, affine=True, track_running_stats=True)
            (fc2): Conv2d(128, 512, kernel_size=(1, 1), stride=(1, 1))
            (rsoftmax): rSoftMax()
          )
          (conv3): Conv2d(
            256, 1024, kernel_size=(1, 1), stride=(1, 1), bias=False
            (norm): NaiveSyncBatchNorm(1024, eps=1e-05, momentum=0.1, affine=True, track_running_stats=True)
          )
        )
        (12): DeformBottleneckBlock(
          (conv1): Conv2d(
            1024, 256, kernel_size=(1, 1), stride=(1, 1), bias=False
            (norm): NaiveSyncBatchNorm(256, eps=1e-05, momentum=0.1, affine=True, track_running_stats=True)
          )
          (conv2_offset): Conv2d(256, 54, kernel_size=(3, 3), stride=(1, 1), padding=(1, 1), groups=2)
          (conv2): SplAtConv2d_dcn(
            (conv): ModulatedDeformConv(in_channels=256, out_channels=512, kernel_size=(3, 3), stride=1, padding=1, dilation=1, groups=2, deformable_groups=2, bias=False)
            (bn0): NaiveSyncBatchNorm(512, eps=1e-05, momentum=0.1, affine=True, track_running_stats=True)
            (relu): ReLU(inplace=True)
            (fc1): Conv2d(256, 128, kernel_size=(1, 1), stride=(1, 1))
            (bn1): NaiveSyncBatchNorm(128, eps=1e-05, momentum=0.1, affine=True, track_running_stats=True)
            (fc2): Conv2d(128, 512, kernel_size=(1, 1), stride=(1, 1))
            (rsoftmax): rSoftMax()
          )
          (conv3): Conv2d(
            256, 1024, kernel_size=(1, 1), stride=(1, 1), bias=False
            (norm): NaiveSyncBatchNorm(1024, eps=1e-05, momentum=0.1, affine=True, track_running_stats=True)
          )
        )
        (13): DeformBottleneckBlock(
          (conv1): Conv2d(
            1024, 256, kernel_size=(1, 1), stride=(1, 1), bias=False
            (norm): NaiveSyncBatchNorm(256, eps=1e-05, momentum=0.1, affine=True, track_running_stats=True)
          )
          (conv2_offset): Conv2d(256, 54, kernel_size=(3, 3), stride=(1, 1), padding=(1, 1), groups=2)
          (conv2): SplAtConv2d_dcn(
            (conv): ModulatedDeformConv(in_channels=256, out_channels=512, kernel_size=(3, 3), stride=1, padding=1, dilation=1, groups=2, deformable_groups=2, bias=False)
            (bn0): NaiveSyncBatchNorm(512, eps=1e-05, momentum=0.1, affine=True, track_running_stats=True)
            (relu): ReLU(inplace=True)
            (fc1): Conv2d(256, 128, kernel_size=(1, 1), stride=(1, 1))
            (bn1): NaiveSyncBatchNorm(128, eps=1e-05, momentum=0.1, affine=True, track_running_stats=True)
            (fc2): Conv2d(128, 512, kernel_size=(1, 1), stride=(1, 1))
            (rsoftmax): rSoftMax()
          )
          (conv3): Conv2d(
            256, 1024, kernel_size=(1, 1), stride=(1, 1), bias=False
            (norm): NaiveSyncBatchNorm(1024, eps=1e-05, momentum=0.1, affine=True, track_running_stats=True)
          )
        )
        (14): DeformBottleneckBlock(
          (conv1): Conv2d(
            1024, 256, kernel_size=(1, 1), stride=(1, 1), bias=False
            (norm): NaiveSyncBatchNorm(256, eps=1e-05, momentum=0.1, affine=True, track_running_stats=True)
          )
          (conv2_offset): Conv2d(256, 54, kernel_size=(3, 3), stride=(1, 1), padding=(1, 1), groups=2)
          (conv2): SplAtConv2d_dcn(
            (conv): ModulatedDeformConv(in_channels=256, out_channels=512, kernel_size=(3, 3), stride=1, padding=1, dilation=1, groups=2, deformable_groups=2, bias=False)
            (bn0): NaiveSyncBatchNorm(512, eps=1e-05, momentum=0.1, affine=True, track_running_stats=True)
            (relu): ReLU(inplace=True)
            (fc1): Conv2d(256, 128, kernel_size=(1, 1), stride=(1, 1))
            (bn1): NaiveSyncBatchNorm(128, eps=1e-05, momentum=0.1, affine=True, track_running_stats=True)
            (fc2): Conv2d(128, 512, kernel_size=(1, 1), stride=(1, 1))
            (rsoftmax): rSoftMax()
          )
          (conv3): Conv2d(
            256, 1024, kernel_size=(1, 1), stride=(1, 1), bias=False
            (norm): NaiveSyncBatchNorm(1024, eps=1e-05, momentum=0.1, affine=True, track_running_stats=True)
          )
        )
        (15): DeformBottleneckBlock(
          (conv1): Conv2d(
            1024, 256, kernel_size=(1, 1), stride=(1, 1), bias=False
            (norm): NaiveSyncBatchNorm(256, eps=1e-05, momentum=0.1, affine=True, track_running_stats=True)
          )
          (conv2_offset): Conv2d(256, 54, kernel_size=(3, 3), stride=(1, 1), padding=(1, 1), groups=2)
          (conv2): SplAtConv2d_dcn(
            (conv): ModulatedDeformConv(in_channels=256, out_channels=512, kernel_size=(3, 3), stride=1, padding=1, dilation=1, groups=2, deformable_groups=2, bias=False)
            (bn0): NaiveSyncBatchNorm(512, eps=1e-05, momentum=0.1, affine=True, track_running_stats=True)
            (relu): ReLU(inplace=True)
            (fc1): Conv2d(256, 128, kernel_size=(1, 1), stride=(1, 1))
            (bn1): NaiveSyncBatchNorm(128, eps=1e-05, momentum=0.1, affine=True, track_running_stats=True)
            (fc2): Conv2d(128, 512, kernel_size=(1, 1), stride=(1, 1))
            (rsoftmax): rSoftMax()
          )
          (conv3): Conv2d(
            256, 1024, kernel_size=(1, 1), stride=(1, 1), bias=False
            (norm): NaiveSyncBatchNorm(1024, eps=1e-05, momentum=0.1, affine=True, track_running_stats=True)
          )
        )
        (16): DeformBottleneckBlock(
          (conv1): Conv2d(
            1024, 256, kernel_size=(1, 1), stride=(1, 1), bias=False
            (norm): NaiveSyncBatchNorm(256, eps=1e-05, momentum=0.1, affine=True, track_running_stats=True)
          )
          (conv2_offset): Conv2d(256, 54, kernel_size=(3, 3), stride=(1, 1), padding=(1, 1), groups=2)
          (conv2): SplAtConv2d_dcn(
            (conv): ModulatedDeformConv(in_channels=256, out_channels=512, kernel_size=(3, 3), stride=1, padding=1, dilation=1, groups=2, deformable_groups=2, bias=False)
            (bn0): NaiveSyncBatchNorm(512, eps=1e-05, momentum=0.1, affine=True, track_running_stats=True)
            (relu): ReLU(inplace=True)
            (fc1): Conv2d(256, 128, kernel_size=(1, 1), stride=(1, 1))
            (bn1): NaiveSyncBatchNorm(128, eps=1e-05, momentum=0.1, affine=True, track_running_stats=True)
            (fc2): Conv2d(128, 512, kernel_size=(1, 1), stride=(1, 1))
            (rsoftmax): rSoftMax()
          )
          (conv3): Conv2d(
            256, 1024, kernel_size=(1, 1), stride=(1, 1), bias=False
            (norm): NaiveSyncBatchNorm(1024, eps=1e-05, momentum=0.1, affine=True, track_running_stats=True)
          )
        )
        (17): DeformBottleneckBlock(
          (conv1): Conv2d(
            1024, 256, kernel_size=(1, 1), stride=(1, 1), bias=False
            (norm): NaiveSyncBatchNorm(256, eps=1e-05, momentum=0.1, affine=True, track_running_stats=True)
          )
          (conv2_offset): Conv2d(256, 54, kernel_size=(3, 3), stride=(1, 1), padding=(1, 1), groups=2)
          (conv2): SplAtConv2d_dcn(
            (conv): ModulatedDeformConv(in_channels=256, out_channels=512, kernel_size=(3, 3), stride=1, padding=1, dilation=1, groups=2, deformable_groups=2, bias=False)
            (bn0): NaiveSyncBatchNorm(512, eps=1e-05, momentum=0.1, affine=True, track_running_stats=True)
            (relu): ReLU(inplace=True)
            (fc1): Conv2d(256, 128, kernel_size=(1, 1), stride=(1, 1))
            (bn1): NaiveSyncBatchNorm(128, eps=1e-05, momentum=0.1, affine=True, track_running_stats=True)
            (fc2): Conv2d(128, 512, kernel_size=(1, 1), stride=(1, 1))
            (rsoftmax): rSoftMax()
          )
          (conv3): Conv2d(
            256, 1024, kernel_size=(1, 1), stride=(1, 1), bias=False
            (norm): NaiveSyncBatchNorm(1024, eps=1e-05, momentum=0.1, affine=True, track_running_stats=True)
          )
        )
        (18): DeformBottleneckBlock(
          (conv1): Conv2d(
            1024, 256, kernel_size=(1, 1), stride=(1, 1), bias=False
            (norm): NaiveSyncBatchNorm(256, eps=1e-05, momentum=0.1, affine=True, track_running_stats=True)
          )
          (conv2_offset): Conv2d(256, 54, kernel_size=(3, 3), stride=(1, 1), padding=(1, 1), groups=2)
          (conv2): SplAtConv2d_dcn(
            (conv): ModulatedDeformConv(in_channels=256, out_channels=512, kernel_size=(3, 3), stride=1, padding=1, dilation=1, groups=2, deformable_groups=2, bias=False)
            (bn0): NaiveSyncBatchNorm(512, eps=1e-05, momentum=0.1, affine=True, track_running_stats=True)
            (relu): ReLU(inplace=True)
            (fc1): Conv2d(256, 128, kernel_size=(1, 1), stride=(1, 1))
            (bn1): NaiveSyncBatchNorm(128, eps=1e-05, momentum=0.1, affine=True, track_running_stats=True)
            (fc2): Conv2d(128, 512, kernel_size=(1, 1), stride=(1, 1))
            (rsoftmax): rSoftMax()
          )
          (conv3): Conv2d(
            256, 1024, kernel_size=(1, 1), stride=(1, 1), bias=False
            (norm): NaiveSyncBatchNorm(1024, eps=1e-05, momentum=0.1, affine=True, track_running_stats=True)
          )
        )
        (19): DeformBottleneckBlock(
          (conv1): Conv2d(
            1024, 256, kernel_size=(1, 1), stride=(1, 1), bias=False
            (norm): NaiveSyncBatchNorm(256, eps=1e-05, momentum=0.1, affine=True, track_running_stats=True)
          )
          (conv2_offset): Conv2d(256, 54, kernel_size=(3, 3), stride=(1, 1), padding=(1, 1), groups=2)
          (conv2): SplAtConv2d_dcn(
            (conv): ModulatedDeformConv(in_channels=256, out_channels=512, kernel_size=(3, 3), stride=1, padding=1, dilation=1, groups=2, deformable_groups=2, bias=False)
            (bn0): NaiveSyncBatchNorm(512, eps=1e-05, momentum=0.1, affine=True, track_running_stats=True)
            (relu): ReLU(inplace=True)
            (fc1): Conv2d(256, 128, kernel_size=(1, 1), stride=(1, 1))
            (bn1): NaiveSyncBatchNorm(128, eps=1e-05, momentum=0.1, affine=True, track_running_stats=True)
            (fc2): Conv2d(128, 512, kernel_size=(1, 1), stride=(1, 1))
            (rsoftmax): rSoftMax()
          )
          (conv3): Conv2d(
            256, 1024, kernel_size=(1, 1), stride=(1, 1), bias=False
            (norm): NaiveSyncBatchNorm(1024, eps=1e-05, momentum=0.1, affine=True, track_running_stats=True)
          )
        )
        (20): DeformBottleneckBlock(
          (conv1): Conv2d(
            1024, 256, kernel_size=(1, 1), stride=(1, 1), bias=False
            (norm): NaiveSyncBatchNorm(256, eps=1e-05, momentum=0.1, affine=True, track_running_stats=True)
          )
          (conv2_offset): Conv2d(256, 54, kernel_size=(3, 3), stride=(1, 1), padding=(1, 1), groups=2)
          (conv2): SplAtConv2d_dcn(
            (conv): ModulatedDeformConv(in_channels=256, out_channels=512, kernel_size=(3, 3), stride=1, padding=1, dilation=1, groups=2, deformable_groups=2, bias=False)
            (bn0): NaiveSyncBatchNorm(512, eps=1e-05, momentum=0.1, affine=True, track_running_stats=True)
            (relu): ReLU(inplace=True)
            (fc1): Conv2d(256, 128, kernel_size=(1, 1), stride=(1, 1))
            (bn1): NaiveSyncBatchNorm(128, eps=1e-05, momentum=0.1, affine=True, track_running_stats=True)
            (fc2): Conv2d(128, 512, kernel_size=(1, 1), stride=(1, 1))
            (rsoftmax): rSoftMax()
          )
          (conv3): Conv2d(
            256, 1024, kernel_size=(1, 1), stride=(1, 1), bias=False
            (norm): NaiveSyncBatchNorm(1024, eps=1e-05, momentum=0.1, affine=True, track_running_stats=True)
          )
        )
        (21): DeformBottleneckBlock(
          (conv1): Conv2d(
            1024, 256, kernel_size=(1, 1), stride=(1, 1), bias=False
            (norm): NaiveSyncBatchNorm(256, eps=1e-05, momentum=0.1, affine=True, track_running_stats=True)
          )
          (conv2_offset): Conv2d(256, 54, kernel_size=(3, 3), stride=(1, 1), padding=(1, 1), groups=2)
          (conv2): SplAtConv2d_dcn(
            (conv): ModulatedDeformConv(in_channels=256, out_channels=512, kernel_size=(3, 3), stride=1, padding=1, dilation=1, groups=2, deformable_groups=2, bias=False)
            (bn0): NaiveSyncBatchNorm(512, eps=1e-05, momentum=0.1, affine=True, track_running_stats=True)
            (relu): ReLU(inplace=True)
            (fc1): Conv2d(256, 128, kernel_size=(1, 1), stride=(1, 1))
            (bn1): NaiveSyncBatchNorm(128, eps=1e-05, momentum=0.1, affine=True, track_running_stats=True)
            (fc2): Conv2d(128, 512, kernel_size=(1, 1), stride=(1, 1))
            (rsoftmax): rSoftMax()
          )
          (conv3): Conv2d(
            256, 1024, kernel_size=(1, 1), stride=(1, 1), bias=False
            (norm): NaiveSyncBatchNorm(1024, eps=1e-05, momentum=0.1, affine=True, track_running_stats=True)
          )
        )
        (22): DeformBottleneckBlock(
          (conv1): Conv2d(
            1024, 256, kernel_size=(1, 1), stride=(1, 1), bias=False
            (norm): NaiveSyncBatchNorm(256, eps=1e-05, momentum=0.1, affine=True, track_running_stats=True)
          )
          (conv2_offset): Conv2d(256, 54, kernel_size=(3, 3), stride=(1, 1), padding=(1, 1), groups=2)
          (conv2): SplAtConv2d_dcn(
            (conv): ModulatedDeformConv(in_channels=256, out_channels=512, kernel_size=(3, 3), stride=1, padding=1, dilation=1, groups=2, deformable_groups=2, bias=False)
            (bn0): NaiveSyncBatchNorm(512, eps=1e-05, momentum=0.1, affine=True, track_running_stats=True)
            (relu): ReLU(inplace=True)
            (fc1): Conv2d(256, 128, kernel_size=(1, 1), stride=(1, 1))
            (bn1): NaiveSyncBatchNorm(128, eps=1e-05, momentum=0.1, affine=True, track_running_stats=True)
            (fc2): Conv2d(128, 512, kernel_size=(1, 1), stride=(1, 1))
            (rsoftmax): rSoftMax()
          )
          (conv3): Conv2d(
            256, 1024, kernel_size=(1, 1), stride=(1, 1), bias=False
            (norm): NaiveSyncBatchNorm(1024, eps=1e-05, momentum=0.1, affine=True, track_running_stats=True)
          )
        )
        (23): DeformBottleneckBlock(
          (conv1): Conv2d(
            1024, 256, kernel_size=(1, 1), stride=(1, 1), bias=False
            (norm): NaiveSyncBatchNorm(256, eps=1e-05, momentum=0.1, affine=True, track_running_stats=True)
          )
          (conv2_offset): Conv2d(256, 54, kernel_size=(3, 3), stride=(1, 1), padding=(1, 1), groups=2)
          (conv2): SplAtConv2d_dcn(
            (conv): ModulatedDeformConv(in_channels=256, out_channels=512, kernel_size=(3, 3), stride=1, padding=1, dilation=1, groups=2, deformable_groups=2, bias=False)
            (bn0): NaiveSyncBatchNorm(512, eps=1e-05, momentum=0.1, affine=True, track_running_stats=True)
            (relu): ReLU(inplace=True)
            (fc1): Conv2d(256, 128, kernel_size=(1, 1), stride=(1, 1))
            (bn1): NaiveSyncBatchNorm(128, eps=1e-05, momentum=0.1, affine=True, track_running_stats=True)
            (fc2): Conv2d(128, 512, kernel_size=(1, 1), stride=(1, 1))
            (rsoftmax): rSoftMax()
          )
          (conv3): Conv2d(
            256, 1024, kernel_size=(1, 1), stride=(1, 1), bias=False
            (norm): NaiveSyncBatchNorm(1024, eps=1e-05, momentum=0.1, affine=True, track_running_stats=True)
          )
        )
        (24): DeformBottleneckBlock(
          (conv1): Conv2d(
            1024, 256, kernel_size=(1, 1), stride=(1, 1), bias=False
            (norm): NaiveSyncBatchNorm(256, eps=1e-05, momentum=0.1, affine=True, track_running_stats=True)
          )
          (conv2_offset): Conv2d(256, 54, kernel_size=(3, 3), stride=(1, 1), padding=(1, 1), groups=2)
          (conv2): SplAtConv2d_dcn(
            (conv): ModulatedDeformConv(in_channels=256, out_channels=512, kernel_size=(3, 3), stride=1, padding=1, dilation=1, groups=2, deformable_groups=2, bias=False)
            (bn0): NaiveSyncBatchNorm(512, eps=1e-05, momentum=0.1, affine=True, track_running_stats=True)
            (relu): ReLU(inplace=True)
            (fc1): Conv2d(256, 128, kernel_size=(1, 1), stride=(1, 1))
            (bn1): NaiveSyncBatchNorm(128, eps=1e-05, momentum=0.1, affine=True, track_running_stats=True)
            (fc2): Conv2d(128, 512, kernel_size=(1, 1), stride=(1, 1))
            (rsoftmax): rSoftMax()
          )
          (conv3): Conv2d(
            256, 1024, kernel_size=(1, 1), stride=(1, 1), bias=False
            (norm): NaiveSyncBatchNorm(1024, eps=1e-05, momentum=0.1, affine=True, track_running_stats=True)
          )
        )
        (25): DeformBottleneckBlock(
          (conv1): Conv2d(
            1024, 256, kernel_size=(1, 1), stride=(1, 1), bias=False
            (norm): NaiveSyncBatchNorm(256, eps=1e-05, momentum=0.1, affine=True, track_running_stats=True)
          )
          (conv2_offset): Conv2d(256, 54, kernel_size=(3, 3), stride=(1, 1), padding=(1, 1), groups=2)
          (conv2): SplAtConv2d_dcn(
            (conv): ModulatedDeformConv(in_channels=256, out_channels=512, kernel_size=(3, 3), stride=1, padding=1, dilation=1, groups=2, deformable_groups=2, bias=False)
            (bn0): NaiveSyncBatchNorm(512, eps=1e-05, momentum=0.1, affine=True, track_running_stats=True)
            (relu): ReLU(inplace=True)
            (fc1): Conv2d(256, 128, kernel_size=(1, 1), stride=(1, 1))
            (bn1): NaiveSyncBatchNorm(128, eps=1e-05, momentum=0.1, affine=True, track_running_stats=True)
            (fc2): Conv2d(128, 512, kernel_size=(1, 1), stride=(1, 1))
            (rsoftmax): rSoftMax()
          )
          (conv3): Conv2d(
            256, 1024, kernel_size=(1, 1), stride=(1, 1), bias=False
            (norm): NaiveSyncBatchNorm(1024, eps=1e-05, momentum=0.1, affine=True, track_running_stats=True)
          )
        )
        (26): DeformBottleneckBlock(
          (conv1): Conv2d(
            1024, 256, kernel_size=(1, 1), stride=(1, 1), bias=False
            (norm): NaiveSyncBatchNorm(256, eps=1e-05, momentum=0.1, affine=True, track_running_stats=True)
          )
          (conv2_offset): Conv2d(256, 54, kernel_size=(3, 3), stride=(1, 1), padding=(1, 1), groups=2)
          (conv2): SplAtConv2d_dcn(
            (conv): ModulatedDeformConv(in_channels=256, out_channels=512, kernel_size=(3, 3), stride=1, padding=1, dilation=1, groups=2, deformable_groups=2, bias=False)
            (bn0): NaiveSyncBatchNorm(512, eps=1e-05, momentum=0.1, affine=True, track_running_stats=True)
            (relu): ReLU(inplace=True)
            (fc1): Conv2d(256, 128, kernel_size=(1, 1), stride=(1, 1))
            (bn1): NaiveSyncBatchNorm(128, eps=1e-05, momentum=0.1, affine=True, track_running_stats=True)
            (fc2): Conv2d(128, 512, kernel_size=(1, 1), stride=(1, 1))
            (rsoftmax): rSoftMax()
          )
          (conv3): Conv2d(
            256, 1024, kernel_size=(1, 1), stride=(1, 1), bias=False
            (norm): NaiveSyncBatchNorm(1024, eps=1e-05, momentum=0.1, affine=True, track_running_stats=True)
          )
        )
        (27): DeformBottleneckBlock(
          (conv1): Conv2d(
            1024, 256, kernel_size=(1, 1), stride=(1, 1), bias=False
            (norm): NaiveSyncBatchNorm(256, eps=1e-05, momentum=0.1, affine=True, track_running_stats=True)
          )
          (conv2_offset): Conv2d(256, 54, kernel_size=(3, 3), stride=(1, 1), padding=(1, 1), groups=2)
          (conv2): SplAtConv2d_dcn(
            (conv): ModulatedDeformConv(in_channels=256, out_channels=512, kernel_size=(3, 3), stride=1, padding=1, dilation=1, groups=2, deformable_groups=2, bias=False)
            (bn0): NaiveSyncBatchNorm(512, eps=1e-05, momentum=0.1, affine=True, track_running_stats=True)
            (relu): ReLU(inplace=True)
            (fc1): Conv2d(256, 128, kernel_size=(1, 1), stride=(1, 1))
            (bn1): NaiveSyncBatchNorm(128, eps=1e-05, momentum=0.1, affine=True, track_running_stats=True)
            (fc2): Conv2d(128, 512, kernel_size=(1, 1), stride=(1, 1))
            (rsoftmax): rSoftMax()
          )
          (conv3): Conv2d(
            256, 1024, kernel_size=(1, 1), stride=(1, 1), bias=False
            (norm): NaiveSyncBatchNorm(1024, eps=1e-05, momentum=0.1, affine=True, track_running_stats=True)
          )
        )
        (28): DeformBottleneckBlock(
          (conv1): Conv2d(
            1024, 256, kernel_size=(1, 1), stride=(1, 1), bias=False
            (norm): NaiveSyncBatchNorm(256, eps=1e-05, momentum=0.1, affine=True, track_running_stats=True)
          )
          (conv2_offset): Conv2d(256, 54, kernel_size=(3, 3), stride=(1, 1), padding=(1, 1), groups=2)
          (conv2): SplAtConv2d_dcn(
            (conv): ModulatedDeformConv(in_channels=256, out_channels=512, kernel_size=(3, 3), stride=1, padding=1, dilation=1, groups=2, deformable_groups=2, bias=False)
            (bn0): NaiveSyncBatchNorm(512, eps=1e-05, momentum=0.1, affine=True, track_running_stats=True)
            (relu): ReLU(inplace=True)
            (fc1): Conv2d(256, 128, kernel_size=(1, 1), stride=(1, 1))
            (bn1): NaiveSyncBatchNorm(128, eps=1e-05, momentum=0.1, affine=True, track_running_stats=True)
            (fc2): Conv2d(128, 512, kernel_size=(1, 1), stride=(1, 1))
            (rsoftmax): rSoftMax()
          )
          (conv3): Conv2d(
            256, 1024, kernel_size=(1, 1), stride=(1, 1), bias=False
            (norm): NaiveSyncBatchNorm(1024, eps=1e-05, momentum=0.1, affine=True, track_running_stats=True)
          )
        )
        (29): DeformBottleneckBlock(
          (conv1): Conv2d(
            1024, 256, kernel_size=(1, 1), stride=(1, 1), bias=False
            (norm): NaiveSyncBatchNorm(256, eps=1e-05, momentum=0.1, affine=True, track_running_stats=True)
          )
          (conv2_offset): Conv2d(256, 54, kernel_size=(3, 3), stride=(1, 1), padding=(1, 1), groups=2)
          (conv2): SplAtConv2d_dcn(
            (conv): ModulatedDeformConv(in_channels=256, out_channels=512, kernel_size=(3, 3), stride=1, padding=1, dilation=1, groups=2, deformable_groups=2, bias=False)
            (bn0): NaiveSyncBatchNorm(512, eps=1e-05, momentum=0.1, affine=True, track_running_stats=True)
            (relu): ReLU(inplace=True)
            (fc1): Conv2d(256, 128, kernel_size=(1, 1), stride=(1, 1))
            (bn1): NaiveSyncBatchNorm(128, eps=1e-05, momentum=0.1, affine=True, track_running_stats=True)
            (fc2): Conv2d(128, 512, kernel_size=(1, 1), stride=(1, 1))
            (rsoftmax): rSoftMax()
          )
          (conv3): Conv2d(
            256, 1024, kernel_size=(1, 1), stride=(1, 1), bias=False
            (norm): NaiveSyncBatchNorm(1024, eps=1e-05, momentum=0.1, affine=True, track_running_stats=True)
          )
        )
        (30): DeformBottleneckBlock(
          (conv1): Conv2d(
            1024, 256, kernel_size=(1, 1), stride=(1, 1), bias=False
            (norm): NaiveSyncBatchNorm(256, eps=1e-05, momentum=0.1, affine=True, track_running_stats=True)
          )
          (conv2_offset): Conv2d(256, 54, kernel_size=(3, 3), stride=(1, 1), padding=(1, 1), groups=2)
          (conv2): SplAtConv2d_dcn(
            (conv): ModulatedDeformConv(in_channels=256, out_channels=512, kernel_size=(3, 3), stride=1, padding=1, dilation=1, groups=2, deformable_groups=2, bias=False)
            (bn0): NaiveSyncBatchNorm(512, eps=1e-05, momentum=0.1, affine=True, track_running_stats=True)
            (relu): ReLU(inplace=True)
            (fc1): Conv2d(256, 128, kernel_size=(1, 1), stride=(1, 1))
            (bn1): NaiveSyncBatchNorm(128, eps=1e-05, momentum=0.1, affine=True, track_running_stats=True)
            (fc2): Conv2d(128, 512, kernel_size=(1, 1), stride=(1, 1))
            (rsoftmax): rSoftMax()
          )
          (conv3): Conv2d(
            256, 1024, kernel_size=(1, 1), stride=(1, 1), bias=False
            (norm): NaiveSyncBatchNorm(1024, eps=1e-05, momentum=0.1, affine=True, track_running_stats=True)
          )
        )
        (31): DeformBottleneckBlock(
          (conv1): Conv2d(
            1024, 256, kernel_size=(1, 1), stride=(1, 1), bias=False
            (norm): NaiveSyncBatchNorm(256, eps=1e-05, momentum=0.1, affine=True, track_running_stats=True)
          )
          (conv2_offset): Conv2d(256, 54, kernel_size=(3, 3), stride=(1, 1), padding=(1, 1), groups=2)
          (conv2): SplAtConv2d_dcn(
            (conv): ModulatedDeformConv(in_channels=256, out_channels=512, kernel_size=(3, 3), stride=1, padding=1, dilation=1, groups=2, deformable_groups=2, bias=False)
            (bn0): NaiveSyncBatchNorm(512, eps=1e-05, momentum=0.1, affine=True, track_running_stats=True)
            (relu): ReLU(inplace=True)
            (fc1): Conv2d(256, 128, kernel_size=(1, 1), stride=(1, 1))
            (bn1): NaiveSyncBatchNorm(128, eps=1e-05, momentum=0.1, affine=True, track_running_stats=True)
            (fc2): Conv2d(128, 512, kernel_size=(1, 1), stride=(1, 1))
            (rsoftmax): rSoftMax()
          )
          (conv3): Conv2d(
            256, 1024, kernel_size=(1, 1), stride=(1, 1), bias=False
            (norm): NaiveSyncBatchNorm(1024, eps=1e-05, momentum=0.1, affine=True, track_running_stats=True)
          )
        )
        (32): DeformBottleneckBlock(
          (conv1): Conv2d(
            1024, 256, kernel_size=(1, 1), stride=(1, 1), bias=False
            (norm): NaiveSyncBatchNorm(256, eps=1e-05, momentum=0.1, affine=True, track_running_stats=True)
          )
          (conv2_offset): Conv2d(256, 54, kernel_size=(3, 3), stride=(1, 1), padding=(1, 1), groups=2)
          (conv2): SplAtConv2d_dcn(
            (conv): ModulatedDeformConv(in_channels=256, out_channels=512, kernel_size=(3, 3), stride=1, padding=1, dilation=1, groups=2, deformable_groups=2, bias=False)
            (bn0): NaiveSyncBatchNorm(512, eps=1e-05, momentum=0.1, affine=True, track_running_stats=True)
            (relu): ReLU(inplace=True)
            (fc1): Conv2d(256, 128, kernel_size=(1, 1), stride=(1, 1))
            (bn1): NaiveSyncBatchNorm(128, eps=1e-05, momentum=0.1, affine=True, track_running_stats=True)
            (fc2): Conv2d(128, 512, kernel_size=(1, 1), stride=(1, 1))
            (rsoftmax): rSoftMax()
          )
          (conv3): Conv2d(
            256, 1024, kernel_size=(1, 1), stride=(1, 1), bias=False
            (norm): NaiveSyncBatchNorm(1024, eps=1e-05, momentum=0.1, affine=True, track_running_stats=True)
          )
        )
        (33): DeformBottleneckBlock(
          (conv1): Conv2d(
            1024, 256, kernel_size=(1, 1), stride=(1, 1), bias=False
            (norm): NaiveSyncBatchNorm(256, eps=1e-05, momentum=0.1, affine=True, track_running_stats=True)
          )
          (conv2_offset): Conv2d(256, 54, kernel_size=(3, 3), stride=(1, 1), padding=(1, 1), groups=2)
          (conv2): SplAtConv2d_dcn(
            (conv): ModulatedDeformConv(in_channels=256, out_channels=512, kernel_size=(3, 3), stride=1, padding=1, dilation=1, groups=2, deformable_groups=2, bias=False)
            (bn0): NaiveSyncBatchNorm(512, eps=1e-05, momentum=0.1, affine=True, track_running_stats=True)
            (relu): ReLU(inplace=True)
            (fc1): Conv2d(256, 128, kernel_size=(1, 1), stride=(1, 1))
            (bn1): NaiveSyncBatchNorm(128, eps=1e-05, momentum=0.1, affine=True, track_running_stats=True)
            (fc2): Conv2d(128, 512, kernel_size=(1, 1), stride=(1, 1))
            (rsoftmax): rSoftMax()
          )
          (conv3): Conv2d(
            256, 1024, kernel_size=(1, 1), stride=(1, 1), bias=False
            (norm): NaiveSyncBatchNorm(1024, eps=1e-05, momentum=0.1, affine=True, track_running_stats=True)
          )
        )
        (34): DeformBottleneckBlock(
          (conv1): Conv2d(
            1024, 256, kernel_size=(1, 1), stride=(1, 1), bias=False
            (norm): NaiveSyncBatchNorm(256, eps=1e-05, momentum=0.1, affine=True, track_running_stats=True)
          )
          (conv2_offset): Conv2d(256, 54, kernel_size=(3, 3), stride=(1, 1), padding=(1, 1), groups=2)
          (conv2): SplAtConv2d_dcn(
            (conv): ModulatedDeformConv(in_channels=256, out_channels=512, kernel_size=(3, 3), stride=1, padding=1, dilation=1, groups=2, deformable_groups=2, bias=False)
            (bn0): NaiveSyncBatchNorm(512, eps=1e-05, momentum=0.1, affine=True, track_running_stats=True)
            (relu): ReLU(inplace=True)
            (fc1): Conv2d(256, 128, kernel_size=(1, 1), stride=(1, 1))
            (bn1): NaiveSyncBatchNorm(128, eps=1e-05, momentum=0.1, affine=True, track_running_stats=True)
            (fc2): Conv2d(128, 512, kernel_size=(1, 1), stride=(1, 1))
            (rsoftmax): rSoftMax()
          )
          (conv3): Conv2d(
            256, 1024, kernel_size=(1, 1), stride=(1, 1), bias=False
            (norm): NaiveSyncBatchNorm(1024, eps=1e-05, momentum=0.1, affine=True, track_running_stats=True)
          )
        )
        (35): DeformBottleneckBlock(
          (conv1): Conv2d(
            1024, 256, kernel_size=(1, 1), stride=(1, 1), bias=False
            (norm): NaiveSyncBatchNorm(256, eps=1e-05, momentum=0.1, affine=True, track_running_stats=True)
          )
          (conv2_offset): Conv2d(256, 54, kernel_size=(3, 3), stride=(1, 1), padding=(1, 1), groups=2)
          (conv2): SplAtConv2d_dcn(
            (conv): ModulatedDeformConv(in_channels=256, out_channels=512, kernel_size=(3, 3), stride=1, padding=1, dilation=1, groups=2, deformable_groups=2, bias=False)
            (bn0): NaiveSyncBatchNorm(512, eps=1e-05, momentum=0.1, affine=True, track_running_stats=True)
            (relu): ReLU(inplace=True)
            (fc1): Conv2d(256, 128, kernel_size=(1, 1), stride=(1, 1))
            (bn1): NaiveSyncBatchNorm(128, eps=1e-05, momentum=0.1, affine=True, track_running_stats=True)
            (fc2): Conv2d(128, 512, kernel_size=(1, 1), stride=(1, 1))
            (rsoftmax): rSoftMax()
          )
          (conv3): Conv2d(
            256, 1024, kernel_size=(1, 1), stride=(1, 1), bias=False
            (norm): NaiveSyncBatchNorm(1024, eps=1e-05, momentum=0.1, affine=True, track_running_stats=True)
          )
        )
      )
      (res5): Sequential(
        (0): DeformBottleneckBlock(
          (shortcut_avgpool): AvgPool2d(kernel_size=2, stride=2, padding=0)
          (shortcut): Conv2d(
            1024, 2048, kernel_size=(1, 1), stride=(1, 1), bias=False
            (norm): NaiveSyncBatchNorm(2048, eps=1e-05, momentum=0.1, affine=True, track_running_stats=True)
          )
          (conv1): Conv2d(
            1024, 512, kernel_size=(1, 1), stride=(1, 1), bias=False
            (norm): NaiveSyncBatchNorm(512, eps=1e-05, momentum=0.1, affine=True, track_running_stats=True)
          )
          (conv2_offset): Conv2d(512, 54, kernel_size=(3, 3), stride=(1, 1), padding=(1, 1), groups=2)
          (conv2): SplAtConv2d_dcn(
            (conv): ModulatedDeformConv(in_channels=512, out_channels=1024, kernel_size=(3, 3), stride=1, padding=1, dilation=1, groups=2, deformable_groups=2, bias=False)
            (bn0): NaiveSyncBatchNorm(1024, eps=1e-05, momentum=0.1, affine=True, track_running_stats=True)
            (relu): ReLU(inplace=True)
            (fc1): Conv2d(512, 256, kernel_size=(1, 1), stride=(1, 1))
            (bn1): NaiveSyncBatchNorm(256, eps=1e-05, momentum=0.1, affine=True, track_running_stats=True)
            (fc2): Conv2d(256, 1024, kernel_size=(1, 1), stride=(1, 1))
            (rsoftmax): rSoftMax()
          )
          (avd_layer): AvgPool2d(kernel_size=3, stride=2, padding=1)
          (conv3): Conv2d(
            512, 2048, kernel_size=(1, 1), stride=(1, 1), bias=False
            (norm): NaiveSyncBatchNorm(2048, eps=1e-05, momentum=0.1, affine=True, track_running_stats=True)
          )
        )
        (1): DeformBottleneckBlock(
          (conv1): Conv2d(
            2048, 512, kernel_size=(1, 1), stride=(1, 1), bias=False
            (norm): NaiveSyncBatchNorm(512, eps=1e-05, momentum=0.1, affine=True, track_running_stats=True)
          )
          (conv2_offset): Conv2d(512, 54, kernel_size=(3, 3), stride=(1, 1), padding=(1, 1), groups=2)
          (conv2): SplAtConv2d_dcn(
            (conv): ModulatedDeformConv(in_channels=512, out_channels=1024, kernel_size=(3, 3), stride=1, padding=1, dilation=1, groups=2, deformable_groups=2, bias=False)
            (bn0): NaiveSyncBatchNorm(1024, eps=1e-05, momentum=0.1, affine=True, track_running_stats=True)
            (relu): ReLU(inplace=True)
            (fc1): Conv2d(512, 256, kernel_size=(1, 1), stride=(1, 1))
            (bn1): NaiveSyncBatchNorm(256, eps=1e-05, momentum=0.1, affine=True, track_running_stats=True)
            (fc2): Conv2d(256, 1024, kernel_size=(1, 1), stride=(1, 1))
            (rsoftmax): rSoftMax()
          )
          (conv3): Conv2d(
            512, 2048, kernel_size=(1, 1), stride=(1, 1), bias=False
            (norm): NaiveSyncBatchNorm(2048, eps=1e-05, momentum=0.1, affine=True, track_running_stats=True)
          )
        )
        (2): DeformBottleneckBlock(
          (conv1): Conv2d(
            2048, 512, kernel_size=(1, 1), stride=(1, 1), bias=False
            (norm): NaiveSyncBatchNorm(512, eps=1e-05, momentum=0.1, affine=True, track_running_stats=True)
          )
          (conv2_offset): Conv2d(512, 54, kernel_size=(3, 3), stride=(1, 1), padding=(1, 1), groups=2)
          (conv2): SplAtConv2d_dcn(
            (conv): ModulatedDeformConv(in_channels=512, out_channels=1024, kernel_size=(3, 3), stride=1, padding=1, dilation=1, groups=2, deformable_groups=2, bias=False)
            (bn0): NaiveSyncBatchNorm(1024, eps=1e-05, momentum=0.1, affine=True, track_running_stats=True)
            (relu): ReLU(inplace=True)
            (fc1): Conv2d(512, 256, kernel_size=(1, 1), stride=(1, 1))
            (bn1): NaiveSyncBatchNorm(256, eps=1e-05, momentum=0.1, affine=True, track_running_stats=True)
            (fc2): Conv2d(256, 1024, kernel_size=(1, 1), stride=(1, 1))
            (rsoftmax): rSoftMax()
          )
          (conv3): Conv2d(
            512, 2048, kernel_size=(1, 1), stride=(1, 1), bias=False
            (norm): NaiveSyncBatchNorm(2048, eps=1e-05, momentum=0.1, affine=True, track_running_stats=True)
          )
        )
      )
    )
  )
  (proposal_generator): RPN(
    (anchor_generator): DefaultAnchorGenerator(
      (cell_anchors): BufferList()
    )
    (rpn_head): StandardRPNHead(
      (conv): Conv2d(256, 256, kernel_size=(3, 3), stride=(1, 1), padding=(1, 1))
      (objectness_logits): Conv2d(256, 5, kernel_size=(1, 1), stride=(1, 1))
      (anchor_deltas): Conv2d(256, 20, kernel_size=(1, 1), stride=(1, 1))
    )
  )
  (roi_heads): CascadeROIHeads(
    (box_pooler): ROIPooler(
      (level_poolers): ModuleList(
        (0): ROIAlign(output_size=(7, 7), spatial_scale=0.25, sampling_ratio=0, aligned=True)
        (1): ROIAlign(output_size=(7, 7), spatial_scale=0.125, sampling_ratio=0, aligned=True)
        (2): ROIAlign(output_size=(7, 7), spatial_scale=0.0625, sampling_ratio=0, aligned=True)
        (3): ROIAlign(output_size=(7, 7), spatial_scale=0.03125, sampling_ratio=0, aligned=True)
      )
    )
    (box_head): ModuleList(
      (0): FastRCNNConvFCHead(
        (conv1): Conv2d(
          256, 256, kernel_size=(3, 3), stride=(1, 1), padding=(1, 1), bias=False
          (norm): NaiveSyncBatchNorm(256, eps=1e-05, momentum=0.1, affine=True, track_running_stats=True)
        )
        (conv2): Conv2d(
          256, 256, kernel_size=(3, 3), stride=(1, 1), padding=(1, 1), bias=False
          (norm): NaiveSyncBatchNorm(256, eps=1e-05, momentum=0.1, affine=True, track_running_stats=True)
        )
        (conv3): Conv2d(
          256, 256, kernel_size=(3, 3), stride=(1, 1), padding=(1, 1), bias=False
          (norm): NaiveSyncBatchNorm(256, eps=1e-05, momentum=0.1, affine=True, track_running_stats=True)
        )
        (conv4): Conv2d(
          256, 256, kernel_size=(3, 3), stride=(1, 1), padding=(1, 1), bias=False
          (norm): NaiveSyncBatchNorm(256, eps=1e-05, momentum=0.1, affine=True, track_running_stats=True)
        )
        (fc1): Linear(in_features=12544, out_features=1024, bias=True)
      )
      (1): FastRCNNConvFCHead(
        (conv1): Conv2d(
          256, 256, kernel_size=(3, 3), stride=(1, 1), padding=(1, 1), bias=False
          (norm): NaiveSyncBatchNorm(256, eps=1e-05, momentum=0.1, affine=True, track_running_stats=True)
        )
        (conv2): Conv2d(
          256, 256, kernel_size=(3, 3), stride=(1, 1), padding=(1, 1), bias=False
          (norm): NaiveSyncBatchNorm(256, eps=1e-05, momentum=0.1, affine=True, track_running_stats=True)
        )
        (conv3): Conv2d(
          256, 256, kernel_size=(3, 3), stride=(1, 1), padding=(1, 1), bias=False
          (norm): NaiveSyncBatchNorm(256, eps=1e-05, momentum=0.1, affine=True, track_running_stats=True)
        )
        (conv4): Conv2d(
          256, 256, kernel_size=(3, 3), stride=(1, 1), padding=(1, 1), bias=False
          (norm): NaiveSyncBatchNorm(256, eps=1e-05, momentum=0.1, affine=True, track_running_stats=True)
        )
        (fc1): Linear(in_features=12544, out_features=1024, bias=True)
      )
      (2): FastRCNNConvFCHead(
        (conv1): Conv2d(
          256, 256, kernel_size=(3, 3), stride=(1, 1), padding=(1, 1), bias=False
          (norm): NaiveSyncBatchNorm(256, eps=1e-05, momentum=0.1, affine=True, track_running_stats=True)
        )
        (conv2): Conv2d(
          256, 256, kernel_size=(3, 3), stride=(1, 1), padding=(1, 1), bias=False
          (norm): NaiveSyncBatchNorm(256, eps=1e-05, momentum=0.1, affine=True, track_running_stats=True)
        )
        (conv3): Conv2d(
          256, 256, kernel_size=(3, 3), stride=(1, 1), padding=(1, 1), bias=False
          (norm): NaiveSyncBatchNorm(256, eps=1e-05, momentum=0.1, affine=True, track_running_stats=True)
        )
        (conv4): Conv2d(
          256, 256, kernel_size=(3, 3), stride=(1, 1), padding=(1, 1), bias=False
          (norm): NaiveSyncBatchNorm(256, eps=1e-05, momentum=0.1, affine=True, track_running_stats=True)
        )
        (fc1): Linear(in_features=12544, out_features=1024, bias=True)
      )
    )
    (box_predictor): ModuleList(
      (0): FastRCNNOutputLayers(
        (cls_score): Linear(in_features=1024, out_features=2, bias=True)
        (bbox_pred): Linear(in_features=1024, out_features=4, bias=True)
      )
      (1): FastRCNNOutputLayers(
        (cls_score): Linear(in_features=1024, out_features=2, bias=True)
        (bbox_pred): Linear(in_features=1024, out_features=4, bias=True)
      )
      (2): FastRCNNOutputLayers(
        (cls_score): Linear(in_features=1024, out_features=2, bias=True)
        (bbox_pred): Linear(in_features=1024, out_features=4, bias=True)
      )
    )
    (mask_pooler): ROIPooler(
      (level_poolers): ModuleList(
        (0): ROIAlign(output_size=(14, 14), spatial_scale=0.25, sampling_ratio=0, aligned=True)
        (1): ROIAlign(output_size=(14, 14), spatial_scale=0.125, sampling_ratio=0, aligned=True)
        (2): ROIAlign(output_size=(14, 14), spatial_scale=0.0625, sampling_ratio=0, aligned=True)
        (3): ROIAlign(output_size=(14, 14), spatial_scale=0.03125, sampling_ratio=0, aligned=True)
      )
    )
    (mask_head): MaskRCNNConvUpsampleHead(
      (mask_fcn1): Conv2d(
        256, 256, kernel_size=(3, 3), stride=(1, 1), padding=(1, 1), bias=False
        (norm): NaiveSyncBatchNorm(256, eps=1e-05, momentum=0.1, affine=True, track_running_stats=True)
      )
      (mask_fcn2): Conv2d(
        256, 256, kernel_size=(3, 3), stride=(1, 1), padding=(1, 1), bias=False
        (norm): NaiveSyncBatchNorm(256, eps=1e-05, momentum=0.1, affine=True, track_running_stats=True)
      )
      (mask_fcn3): Conv2d(
        256, 256, kernel_size=(3, 3), stride=(1, 1), padding=(1, 1), bias=False
        (norm): NaiveSyncBatchNorm(256, eps=1e-05, momentum=0.1, affine=True, track_running_stats=True)
      )
      (mask_fcn4): Conv2d(
        256, 256, kernel_size=(3, 3), stride=(1, 1), padding=(1, 1), bias=False
        (norm): NaiveSyncBatchNorm(256, eps=1e-05, momentum=0.1, affine=True, track_running_stats=True)
      )
      (mask_fcn5): Conv2d(
        256, 256, kernel_size=(3, 3), stride=(1, 1), padding=(1, 1), bias=False
        (norm): NaiveSyncBatchNorm(256, eps=1e-05, momentum=0.1, affine=True, track_running_stats=True)
      )
      (mask_fcn6): Conv2d(
        256, 256, kernel_size=(3, 3), stride=(1, 1), padding=(1, 1), bias=False
        (norm): NaiveSyncBatchNorm(256, eps=1e-05, momentum=0.1, affine=True, track_running_stats=True)
      )
      (mask_fcn7): Conv2d(
        256, 256, kernel_size=(3, 3), stride=(1, 1), padding=(1, 1), bias=False
        (norm): NaiveSyncBatchNorm(256, eps=1e-05, momentum=0.1, affine=True, track_running_stats=True)
      )
      (mask_fcn8): Conv2d(
        256, 256, kernel_size=(3, 3), stride=(1, 1), padding=(1, 1), bias=False
        (norm): NaiveSyncBatchNorm(256, eps=1e-05, momentum=0.1, affine=True, track_running_stats=True)
      )
      (deconv): ConvTranspose2d(256, 256, kernel_size=(2, 2), stride=(2, 2))
      (predictor): Conv2d(256, 1, kernel_size=(1, 1), stride=(1, 1))
    )
  )
)
[01/11 15:19:08] detectron2.data.datasets.coco INFO: Loading /lunit/home/stevekang/decentAI/cellDetection/MCF7/LIVECell_dataset_2021/annotations/LIVECell_single_cells/mcf7/train.json takes 3.53 seconds.
[01/11 15:19:09] detectron2.data.datasets.coco INFO: Loaded 469 images in COCO format from /lunit/home/stevekang/decentAI/cellDetection/MCF7/LIVECell_dataset_2021/annotations/LIVECell_single_cells/mcf7/train.json
…
  WARMUP_ITERS: 1000
  WARMUP_METHOD: linear
  WEIGHT_DECAY: 0.0001
  WEIGHT_DECAY_BIAS: 0.0001
  WEIGHT_DECAY_NORM: 0.0
TEST:
  AUG:
    ENABLED: False
    FLIP: True
    MAX_SIZE: 4000
    MIN_SIZES: (400, 500, 600, 700, 800, 900, 1000, 1100, 1200)
  DETECTIONS_PER_IMAGE: 3000
  EVAL_PERIOD: 500
  EXPECTED_RESULTS: []
  KEYPOINT_OKS_SIGMAS: []
  PRECISE_BN:
    ENABLED: False
    NUM_ITER: 200
VERSION: 2
VIS_PERIOD: 0
[01/11 17:02:33] detectron2.utils.env INFO: Using a generated random seed 34003212
[01/11 17:02:36] detectron2.engine.defaults INFO: Model:
GeneralizedRCNN(
  (backbone): FPN(
    (fpn_lateral2): Conv2d(
      256, 256, kernel_size=(1, 1), stride=(1, 1), bias=False
      (norm): NaiveSyncBatchNorm(256, eps=1e-05, momentum=0.1, affine=True, track_running_stats=True)
    )
    (fpn_output2): Conv2d(
      256, 256, kernel_size=(3, 3), stride=(1, 1), padding=(1, 1), bias=False
      (norm): NaiveSyncBatchNorm(256, eps=1e-05, momentum=0.1, affine=True, track_running_stats=True)
    )
    (fpn_lateral3): Conv2d(
      512, 256, kernel_size=(1, 1), stride=(1, 1), bias=False
      (norm): NaiveSyncBatchNorm(256, eps=1e-05, momentum=0.1, affine=True, track_running_stats=True)
    )
    (fpn_output3): Conv2d(
      256, 256, kernel_size=(3, 3), stride=(1, 1), padding=(1, 1), bias=False
      (norm): NaiveSyncBatchNorm(256, eps=1e-05, momentum=0.1, affine=True, track_running_stats=True)
    )
    (fpn_lateral4): Conv2d(
      1024, 256, kernel_size=(1, 1), stride=(1, 1), bias=False
      (norm): NaiveSyncBatchNorm(256, eps=1e-05, momentum=0.1, affine=True, track_running_stats=True)
    )
    (fpn_output4): Conv2d(
      256, 256, kernel_size=(3, 3), stride=(1, 1), padding=(1, 1), bias=False
      (norm): NaiveSyncBatchNorm(256, eps=1e-05, momentum=0.1, affine=True, track_running_stats=True)
    )
    (fpn_lateral5): Conv2d(
      2048, 256, kernel_size=(1, 1), stride=(1, 1), bias=False
      (norm): NaiveSyncBatchNorm(256, eps=1e-05, momentum=0.1, affine=True, track_running_stats=True)
    )
    (fpn_output5): Conv2d(
      256, 256, kernel_size=(3, 3), stride=(1, 1), padding=(1, 1), bias=False
      (norm): NaiveSyncBatchNorm(256, eps=1e-05, momentum=0.1, affine=True, track_running_stats=True)
    )
    (top_block): LastLevelMaxPool()
    (bottom_up): ResNet(
      (stem): BasicStem(
        (dropout): Dropout(p=0.3, inplace=False)
        (conv1_1): Conv2d(
          3, 32, kernel_size=(3, 3), stride=(2, 2), padding=(1, 1), bias=False
          (norm): NaiveSyncBatchNorm(32, eps=1e-05, momentum=0.1, affine=True, track_running_stats=True)
        )
        (conv1_2): Conv2d(
          32, 32, kernel_size=(3, 3), stride=(1, 1), padding=(1, 1), bias=False
          (norm): NaiveSyncBatchNorm(32, eps=1e-05, momentum=0.1, affine=True, track_running_stats=True)
        )
        (conv1_3): Conv2d(
          32, 64, kernel_size=(3, 3), stride=(1, 1), padding=(1, 1), bias=False
          (norm): NaiveSyncBatchNorm(64, eps=1e-05, momentum=0.1, affine=True, track_running_stats=True)
        )
      )
      (res2): Sequential(
        (0): BottleneckBlock(
          (shortcut_avgpool): AvgPool2d(kernel_size=1, stride=1, padding=0)
          (shortcut): Conv2d(
            64, 256, kernel_size=(1, 1), stride=(1, 1), bias=False
            (norm): NaiveSyncBatchNorm(256, eps=1e-05, momentum=0.1, affine=True, track_running_stats=True)
          )
          (conv1): Conv2d(
            64, 64, kernel_size=(1, 1), stride=(1, 1), bias=False
            (norm): NaiveSyncBatchNorm(64, eps=1e-05, momentum=0.1, affine=True, track_running_stats=True)
          )
          (conv2): SplAtConv2d(
            (conv): Conv2d(64, 128, kernel_size=(3, 3), stride=(1, 1), padding=(1, 1), groups=2, bias=False)
            (bn0): NaiveSyncBatchNorm(128, eps=1e-05, momentum=0.1, affine=True, track_running_stats=True)
            (relu): ReLU(inplace=True)
            (fc1): Conv2d(64, 32, kernel_size=(1, 1), stride=(1, 1))
            (bn1): NaiveSyncBatchNorm(32, eps=1e-05, momentum=0.1, affine=True, track_running_stats=True)
            (fc2): Conv2d(32, 128, kernel_size=(1, 1), stride=(1, 1))
            (rsoftmax): rSoftMax()
          )
          (conv3): Conv2d(
            64, 256, kernel_size=(1, 1), stride=(1, 1), bias=False
            (norm): NaiveSyncBatchNorm(256, eps=1e-05, momentum=0.1, affine=True, track_running_stats=True)
          )
        )
        (1): BottleneckBlock(
          (conv1): Conv2d(
            256, 64, kernel_size=(1, 1), stride=(1, 1), bias=False
            (norm): NaiveSyncBatchNorm(64, eps=1e-05, momentum=0.1, affine=True, track_running_stats=True)
          )
          (conv2): SplAtConv2d(
            (conv): Conv2d(64, 128, kernel_size=(3, 3), stride=(1, 1), padding=(1, 1), groups=2, bias=False)
            (bn0): NaiveSyncBatchNorm(128, eps=1e-05, momentum=0.1, affine=True, track_running_stats=True)
            (relu): ReLU(inplace=True)
            (fc1): Conv2d(64, 32, kernel_size=(1, 1), stride=(1, 1))
            (bn1): NaiveSyncBatchNorm(32, eps=1e-05, momentum=0.1, affine=True, track_running_stats=True)
            (fc2): Conv2d(32, 128, kernel_size=(1, 1), stride=(1, 1))
            (rsoftmax): rSoftMax()
          )
          (conv3): Conv2d(
            64, 256, kernel_size=(1, 1), stride=(1, 1), bias=False
            (norm): NaiveSyncBatchNorm(256, eps=1e-05, momentum=0.1, affine=True, track_running_stats=True)
          )
        )
        (2): BottleneckBlock(
          (conv1): Conv2d(
            256, 64, kernel_size=(1, 1), stride=(1, 1), bias=False
            (norm): NaiveSyncBatchNorm(64, eps=1e-05, momentum=0.1, affine=True, track_running_stats=True)
          )
          (conv2): SplAtConv2d(
            (conv): Conv2d(64, 128, kernel_size=(3, 3), stride=(1, 1), padding=(1, 1), groups=2, bias=False)
            (bn0): NaiveSyncBatchNorm(128, eps=1e-05, momentum=0.1, affine=True, track_running_stats=True)
            (relu): ReLU(inplace=True)
            (fc1): Conv2d(64, 32, kernel_size=(1, 1), stride=(1, 1))
            (bn1): NaiveSyncBatchNorm(32, eps=1e-05, momentum=0.1, affine=True, track_running_stats=True)
            (fc2): Conv2d(32, 128, kernel_size=(1, 1), stride=(1, 1))
            (rsoftmax): rSoftMax()
          )
          (conv3): Conv2d(
            64, 256, kernel_size=(1, 1), stride=(1, 1), bias=False
            (norm): NaiveSyncBatchNorm(256, eps=1e-05, momentum=0.1, affine=True, track_running_stats=True)
          )
        )
      )
      (res3): Sequential(
        (0): DeformBottleneckBlock(
          (shortcut_avgpool): AvgPool2d(kernel_size=2, stride=2, padding=0)
          (shortcut): Conv2d(
            256, 512, kernel_size=(1, 1), stride=(1, 1), bias=False
            (norm): NaiveSyncBatchNorm(512, eps=1e-05, momentum=0.1, affine=True, track_running_stats=True)
          )
          (conv1): Conv2d(
            256, 128, kernel_size=(1, 1), stride=(1, 1), bias=False
            (norm): NaiveSyncBatchNorm(128, eps=1e-05, momentum=0.1, affine=True, track_running_stats=True)
          )
          (conv2_offset): Conv2d(128, 54, kernel_size=(3, 3), stride=(1, 1), padding=(1, 1), groups=2)
          (conv2): SplAtConv2d_dcn(
            (conv): ModulatedDeformConv(in_channels=128, out_channels=256, kernel_size=(3, 3), stride=1, padding=1, dilation=1, groups=2, deformable_groups=2, bias=False)
            (bn0): NaiveSyncBatchNorm(256, eps=1e-05, momentum=0.1, affine=True, track_running_stats=True)
            (relu): ReLU(inplace=True)
            (fc1): Conv2d(128, 64, kernel_size=(1, 1), stride=(1, 1))
            (bn1): NaiveSyncBatchNorm(64, eps=1e-05, momentum=0.1, affine=True, track_running_stats=True)
            (fc2): Conv2d(64, 256, kernel_size=(1, 1), stride=(1, 1))
            (rsoftmax): rSoftMax()
          )
          (avd_layer): AvgPool2d(kernel_size=3, stride=2, padding=1)
          (conv3): Conv2d(
            128, 512, kernel_size=(1, 1), stride=(1, 1), bias=False
            (norm): NaiveSyncBatchNorm(512, eps=1e-05, momentum=0.1, affine=True, track_running_stats=True)
          )
        )
        (1): DeformBottleneckBlock(
          (conv1): Conv2d(
            512, 128, kernel_size=(1, 1), stride=(1, 1), bias=False
            (norm): NaiveSyncBatchNorm(128, eps=1e-05, momentum=0.1, affine=True, track_running_stats=True)
          )
          (conv2_offset): Conv2d(128, 54, kernel_size=(3, 3), stride=(1, 1), padding=(1, 1), groups=2)
          (conv2): SplAtConv2d_dcn(
            (conv): ModulatedDeformConv(in_channels=128, out_channels=256, kernel_size=(3, 3), stride=1, padding=1, dilation=1, groups=2, deformable_groups=2, bias=False)
            (bn0): NaiveSyncBatchNorm(256, eps=1e-05, momentum=0.1, affine=True, track_running_stats=True)
            (relu): ReLU(inplace=True)
            (fc1): Conv2d(128, 64, kernel_size=(1, 1), stride=(1, 1))
            (bn1): NaiveSyncBatchNorm(64, eps=1e-05, momentum=0.1, affine=True, track_running_stats=True)
            (fc2): Conv2d(64, 256, kernel_size=(1, 1), stride=(1, 1))
            (rsoftmax): rSoftMax()
          )
          (conv3): Conv2d(
            128, 512, kernel_size=(1, 1), stride=(1, 1), bias=False
            (norm): NaiveSyncBatchNorm(512, eps=1e-05, momentum=0.1, affine=True, track_running_stats=True)
          )
        )
        (2): DeformBottleneckBlock(
          (conv1): Conv2d(
            512, 128, kernel_size=(1, 1), stride=(1, 1), bias=False
            (norm): NaiveSyncBatchNorm(128, eps=1e-05, momentum=0.1, affine=True, track_running_stats=True)
          )
          (conv2_offset): Conv2d(128, 54, kernel_size=(3, 3), stride=(1, 1), padding=(1, 1), groups=2)
          (conv2): SplAtConv2d_dcn(
            (conv): ModulatedDeformConv(in_channels=128, out_channels=256, kernel_size=(3, 3), stride=1, padding=1, dilation=1, groups=2, deformable_groups=2, bias=False)
            (bn0): NaiveSyncBatchNorm(256, eps=1e-05, momentum=0.1, affine=True, track_running_stats=True)
            (relu): ReLU(inplace=True)
            (fc1): Conv2d(128, 64, kernel_size=(1, 1), stride=(1, 1))
            (bn1): NaiveSyncBatchNorm(64, eps=1e-05, momentum=0.1, affine=True, track_running_stats=True)
            (fc2): Conv2d(64, 256, kernel_size=(1, 1), stride=(1, 1))
            (rsoftmax): rSoftMax()
          )
          (conv3): Conv2d(
            128, 512, kernel_size=(1, 1), stride=(1, 1), bias=False
            (norm): NaiveSyncBatchNorm(512, eps=1e-05, momentum=0.1, affine=True, track_running_stats=True)
          )
        )
        (3): DeformBottleneckBlock(
          (conv1): Conv2d(
            512, 128, kernel_size=(1, 1), stride=(1, 1), bias=False
            (norm): NaiveSyncBatchNorm(128, eps=1e-05, momentum=0.1, affine=True, track_running_stats=True)
          )
          (conv2_offset): Conv2d(128, 54, kernel_size=(3, 3), stride=(1, 1), padding=(1, 1), groups=2)
          (conv2): SplAtConv2d_dcn(
            (conv): ModulatedDeformConv(in_channels=128, out_channels=256, kernel_size=(3, 3), stride=1, padding=1, dilation=1, groups=2, deformable_groups=2, bias=False)
            (bn0): NaiveSyncBatchNorm(256, eps=1e-05, momentum=0.1, affine=True, track_running_stats=True)
            (relu): ReLU(inplace=True)
            (fc1): Conv2d(128, 64, kernel_size=(1, 1), stride=(1, 1))
            (bn1): NaiveSyncBatchNorm(64, eps=1e-05, momentum=0.1, affine=True, track_running_stats=True)
            (fc2): Conv2d(64, 256, kernel_size=(1, 1), stride=(1, 1))
            (rsoftmax): rSoftMax()
          )
          (conv3): Conv2d(
            128, 512, kernel_size=(1, 1), stride=(1, 1), bias=False
            (norm): NaiveSyncBatchNorm(512, eps=1e-05, momentum=0.1, affine=True, track_running_stats=True)
          )
        )
      )
      (res4): Sequential(
        (0): DeformBottleneckBlock(
          (shortcut_avgpool): AvgPool2d(kernel_size=2, stride=2, padding=0)
          (shortcut): Conv2d(
            512, 1024, kernel_size=(1, 1), stride=(1, 1), bias=False
            (norm): NaiveSyncBatchNorm(1024, eps=1e-05, momentum=0.1, affine=True, track_running_stats=True)
          )
          (conv1): Conv2d(
            512, 256, kernel_size=(1, 1), stride=(1, 1), bias=False
            (norm): NaiveSyncBatchNorm(256, eps=1e-05, momentum=0.1, affine=True, track_running_stats=True)
          )
          (conv2_offset): Conv2d(256, 54, kernel_size=(3, 3), stride=(1, 1), padding=(1, 1), groups=2)
          (conv2): SplAtConv2d_dcn(
            (conv): ModulatedDeformConv(in_channels=256, out_channels=512, kernel_size=(3, 3), stride=1, padding=1, dilation=1, groups=2, deformable_groups=2, bias=False)
            (bn0): NaiveSyncBatchNorm(512, eps=1e-05, momentum=0.1, affine=True, track_running_stats=True)
            (relu): ReLU(inplace=True)
            (fc1): Conv2d(256, 128, kernel_size=(1, 1), stride=(1, 1))
            (bn1): NaiveSyncBatchNorm(128, eps=1e-05, momentum=0.1, affine=True, track_running_stats=True)
            (fc2): Conv2d(128, 512, kernel_size=(1, 1), stride=(1, 1))
            (rsoftmax): rSoftMax()
          )
          (avd_layer): AvgPool2d(kernel_size=3, stride=2, padding=1)
          (conv3): Conv2d(
            256, 1024, kernel_size=(1, 1), stride=(1, 1), bias=False
            (norm): NaiveSyncBatchNorm(1024, eps=1e-05, momentum=0.1, affine=True, track_running_stats=True)
          )
        )
        (1): DeformBottleneckBlock(
          (conv1): Conv2d(
            1024, 256, kernel_size=(1, 1), stride=(1, 1), bias=False
            (norm): NaiveSyncBatchNorm(256, eps=1e-05, momentum=0.1, affine=True, track_running_stats=True)
          )
          (conv2_offset): Conv2d(256, 54, kernel_size=(3, 3), stride=(1, 1), padding=(1, 1), groups=2)
          (conv2): SplAtConv2d_dcn(
            (conv): ModulatedDeformConv(in_channels=256, out_channels=512, kernel_size=(3, 3), stride=1, padding=1, dilation=1, groups=2, deformable_groups=2, bias=False)
            (bn0): NaiveSyncBatchNorm(512, eps=1e-05, momentum=0.1, affine=True, track_running_stats=True)
            (relu): ReLU(inplace=True)
            (fc1): Conv2d(256, 128, kernel_size=(1, 1), stride=(1, 1))
            (bn1): NaiveSyncBatchNorm(128, eps=1e-05, momentum=0.1, affine=True, track_running_stats=True)
            (fc2): Conv2d(128, 512, kernel_size=(1, 1), stride=(1, 1))
            (rsoftmax): rSoftMax()
          )
          (conv3): Conv2d(
            256, 1024, kernel_size=(1, 1), stride=(1, 1), bias=False
            (norm): NaiveSyncBatchNorm(1024, eps=1e-05, momentum=0.1, affine=True, track_running_stats=True)
          )
        )
        (2): DeformBottleneckBlock(
          (conv1): Conv2d(
            1024, 256, kernel_size=(1, 1), stride=(1, 1), bias=False
            (norm): NaiveSyncBatchNorm(256, eps=1e-05, momentum=0.1, affine=True, track_running_stats=True)
          )
          (conv2_offset): Conv2d(256, 54, kernel_size=(3, 3), stride=(1, 1), padding=(1, 1), groups=2)
          (conv2): SplAtConv2d_dcn(
            (conv): ModulatedDeformConv(in_channels=256, out_channels=512, kernel_size=(3, 3), stride=1, padding=1, dilation=1, groups=2, deformable_groups=2, bias=False)
            (bn0): NaiveSyncBatchNorm(512, eps=1e-05, momentum=0.1, affine=True, track_running_stats=True)
            (relu): ReLU(inplace=True)
            (fc1): Conv2d(256, 128, kernel_size=(1, 1), stride=(1, 1))
            (bn1): NaiveSyncBatchNorm(128, eps=1e-05, momentum=0.1, affine=True, track_running_stats=True)
            (fc2): Conv2d(128, 512, kernel_size=(1, 1), stride=(1, 1))
            (rsoftmax): rSoftMax()
          )
          (conv3): Conv2d(
            256, 1024, kernel_size=(1, 1), stride=(1, 1), bias=False
            (norm): NaiveSyncBatchNorm(1024, eps=1e-05, momentum=0.1, affine=True, track_running_stats=True)
          )
        )
        (3): DeformBottleneckBlock(
          (conv1): Conv2d(
            1024, 256, kernel_size=(1, 1), stride=(1, 1), bias=False
            (norm): NaiveSyncBatchNorm(256, eps=1e-05, momentum=0.1, affine=True, track_running_stats=True)
          )
          (conv2_offset): Conv2d(256, 54, kernel_size=(3, 3), stride=(1, 1), padding=(1, 1), groups=2)
          (conv2): SplAtConv2d_dcn(
            (conv): ModulatedDeformConv(in_channels=256, out_channels=512, kernel_size=(3, 3), stride=1, padding=1, dilation=1, groups=2, deformable_groups=2, bias=False)
            (bn0): NaiveSyncBatchNorm(512, eps=1e-05, momentum=0.1, affine=True, track_running_stats=True)
            (relu): ReLU(inplace=True)
            (fc1): Conv2d(256, 128, kernel_size=(1, 1), stride=(1, 1))
            (bn1): NaiveSyncBatchNorm(128, eps=1e-05, momentum=0.1, affine=True, track_running_stats=True)
            (fc2): Conv2d(128, 512, kernel_size=(1, 1), stride=(1, 1))
            (rsoftmax): rSoftMax()
          )
          (conv3): Conv2d(
            256, 1024, kernel_size=(1, 1), stride=(1, 1), bias=False
            (norm): NaiveSyncBatchNorm(1024, eps=1e-05, momentum=0.1, affine=True, track_running_stats=True)
          )
        )
        (4): DeformBottleneckBlock(
          (conv1): Conv2d(
            1024, 256, kernel_size=(1, 1), stride=(1, 1), bias=False
            (norm): NaiveSyncBatchNorm(256, eps=1e-05, momentum=0.1, affine=True, track_running_stats=True)
          )
          (conv2_offset): Conv2d(256, 54, kernel_size=(3, 3), stride=(1, 1), padding=(1, 1), groups=2)
          (conv2): SplAtConv2d_dcn(
            (conv): ModulatedDeformConv(in_channels=256, out_channels=512, kernel_size=(3, 3), stride=1, padding=1, dilation=1, groups=2, deformable_groups=2, bias=False)
            (bn0): NaiveSyncBatchNorm(512, eps=1e-05, momentum=0.1, affine=True, track_running_stats=True)
            (relu): ReLU(inplace=True)
            (fc1): Conv2d(256, 128, kernel_size=(1, 1), stride=(1, 1))
            (bn1): NaiveSyncBatchNorm(128, eps=1e-05, momentum=0.1, affine=True, track_running_stats=True)
            (fc2): Conv2d(128, 512, kernel_size=(1, 1), stride=(1, 1))
            (rsoftmax): rSoftMax()
          )
          (conv3): Conv2d(
            256, 1024, kernel_size=(1, 1), stride=(1, 1), bias=False
            (norm): NaiveSyncBatchNorm(1024, eps=1e-05, momentum=0.1, affine=True, track_running_stats=True)
          )
        )
        (5): DeformBottleneckBlock(
          (conv1): Conv2d(
            1024, 256, kernel_size=(1, 1), stride=(1, 1), bias=False
            (norm): NaiveSyncBatchNorm(256, eps=1e-05, momentum=0.1, affine=True, track_running_stats=True)
          )
          (conv2_offset): Conv2d(256, 54, kernel_size=(3, 3), stride=(1, 1), padding=(1, 1), groups=2)
          (conv2): SplAtConv2d_dcn(
            (conv): ModulatedDeformConv(in_channels=256, out_channels=512, kernel_size=(3, 3), stride=1, padding=1, dilation=1, groups=2, deformable_groups=2, bias=False)
            (bn0): NaiveSyncBatchNorm(512, eps=1e-05, momentum=0.1, affine=True, track_running_stats=True)
            (relu): ReLU(inplace=True)
            (fc1): Conv2d(256, 128, kernel_size=(1, 1), stride=(1, 1))
            (bn1): NaiveSyncBatchNorm(128, eps=1e-05, momentum=0.1, affine=True, track_running_stats=True)
            (fc2): Conv2d(128, 512, kernel_size=(1, 1), stride=(1, 1))
            (rsoftmax): rSoftMax()
          )
          (conv3): Conv2d(
            256, 1024, kernel_size=(1, 1), stride=(1, 1), bias=False
            (norm): NaiveSyncBatchNorm(1024, eps=1e-05, momentum=0.1, affine=True, track_running_stats=True)
          )
        )
      )
      (res5): Sequential(
        (0): DeformBottleneckBlock(
          (shortcut_avgpool): AvgPool2d(kernel_size=2, stride=2, padding=0)
          (shortcut): Conv2d(
            1024, 2048, kernel_size=(1, 1), stride=(1, 1), bias=False
            (norm): NaiveSyncBatchNorm(2048, eps=1e-05, momentum=0.1, affine=True, track_running_stats=True)
          )
          (conv1): Conv2d(
            1024, 512, kernel_size=(1, 1), stride=(1, 1), bias=False
            (norm): NaiveSyncBatchNorm(512, eps=1e-05, momentum=0.1, affine=True, track_running_stats=True)
          )
          (conv2_offset): Conv2d(512, 54, kernel_size=(3, 3), stride=(1, 1), padding=(1, 1), groups=2)
          (conv2): SplAtConv2d_dcn(
            (conv): ModulatedDeformConv(in_channels=512, out_channels=1024, kernel_size=(3, 3), stride=1, padding=1, dilation=1, groups=2, deformable_groups=2, bias=False)
            (bn0): NaiveSyncBatchNorm(1024, eps=1e-05, momentum=0.1, affine=True, track_running_stats=True)
            (relu): ReLU(inplace=True)
            (fc1): Conv2d(512, 256, kernel_size=(1, 1), stride=(1, 1))
            (bn1): NaiveSyncBatchNorm(256, eps=1e-05, momentum=0.1, affine=True, track_running_stats=True)
            (fc2): Conv2d(256, 1024, kernel_size=(1, 1), stride=(1, 1))
            (rsoftmax): rSoftMax()
          )
          (avd_layer): AvgPool2d(kernel_size=3, stride=2, padding=1)
          (conv3): Conv2d(
            512, 2048, kernel_size=(1, 1), stride=(1, 1), bias=False
            (norm): NaiveSyncBatchNorm(2048, eps=1e-05, momentum=0.1, affine=True, track_running_stats=True)
          )
        )
        (1): DeformBottleneckBlock(
          (conv1): Conv2d(
            2048, 512, kernel_size=(1, 1), stride=(1, 1), bias=False
            (norm): NaiveSyncBatchNorm(512, eps=1e-05, momentum=0.1, affine=True, track_running_stats=True)
          )
          (conv2_offset): Conv2d(512, 54, kernel_size=(3, 3), stride=(1, 1), padding=(1, 1), groups=2)
          (conv2): SplAtConv2d_dcn(
            (conv): ModulatedDeformConv(in_channels=512, out_channels=1024, kernel_size=(3, 3), stride=1, padding=1, dilation=1, groups=2, deformable_groups=2, bias=False)
            (bn0): NaiveSyncBatchNorm(1024, eps=1e-05, momentum=0.1, affine=True, track_running_stats=True)
            (relu): ReLU(inplace=True)
            (fc1): Conv2d(512, 256, kernel_size=(1, 1), stride=(1, 1))
            (bn1): NaiveSyncBatchNorm(256, eps=1e-05, momentum=0.1, affine=True, track_running_stats=True)
            (fc2): Conv2d(256, 1024, kernel_size=(1, 1), stride=(1, 1))
            (rsoftmax): rSoftMax()
          )
          (conv3): Conv2d(
            512, 2048, kernel_size=(1, 1), stride=(1, 1), bias=False
            (norm): NaiveSyncBatchNorm(2048, eps=1e-05, momentum=0.1, affine=True, track_running_stats=True)
          )
        )
        (2): DeformBottleneckBlock(
          (conv1): Conv2d(
            2048, 512, kernel_size=(1, 1), stride=(1, 1), bias=False
            (norm): NaiveSyncBatchNorm(512, eps=1e-05, momentum=0.1, affine=True, track_running_stats=True)
          )
          (conv2_offset): Conv2d(512, 54, kernel_size=(3, 3), stride=(1, 1), padding=(1, 1), groups=2)
          (conv2): SplAtConv2d_dcn(
            (conv): ModulatedDeformConv(in_channels=512, out_channels=1024, kernel_size=(3, 3), stride=1, padding=1, dilation=1, groups=2, deformable_groups=2, bias=False)
            (bn0): NaiveSyncBatchNorm(1024, eps=1e-05, momentum=0.1, affine=True, track_running_stats=True)
            (relu): ReLU(inplace=True)
            (fc1): Conv2d(512, 256, kernel_size=(1, 1), stride=(1, 1))
            (bn1): NaiveSyncBatchNorm(256, eps=1e-05, momentum=0.1, affine=True, track_running_stats=True)
            (fc2): Conv2d(256, 1024, kernel_size=(1, 1), stride=(1, 1))
            (rsoftmax): rSoftMax()
          )
          (conv3): Conv2d(
            512, 2048, kernel_size=(1, 1), stride=(1, 1), bias=False
            (norm): NaiveSyncBatchNorm(2048, eps=1e-05, momentum=0.1, affine=True, track_running_stats=True)
          )
        )
      )
    )
  )
  (proposal_generator): RPN(
    (anchor_generator): DefaultAnchorGenerator(
      (cell_anchors): BufferList()
    )
    (rpn_head): StandardRPNHead(
      (conv): Conv2d(256, 256, kernel_size=(3, 3), stride=(1, 1), padding=(1, 1))
      (objectness_logits): Conv2d(256, 5, kernel_size=(1, 1), stride=(1, 1))
      (anchor_deltas): Conv2d(256, 20, kernel_size=(1, 1), stride=(1, 1))
    )
  )
  (roi_heads): CascadeROIHeads(
    (box_pooler): ROIPooler(
      (level_poolers): ModuleList(
        (0): ROIAlign(output_size=(7, 7), spatial_scale=0.25, sampling_ratio=0, aligned=True)
        (1): ROIAlign(output_size=(7, 7), spatial_scale=0.125, sampling_ratio=0, aligned=True)
        (2): ROIAlign(output_size=(7, 7), spatial_scale=0.0625, sampling_ratio=0, aligned=True)
        (3): ROIAlign(output_size=(7, 7), spatial_scale=0.03125, sampling_ratio=0, aligned=True)
      )
    )
    (box_head): ModuleList(
      (0): FastRCNNConvFCHead(
        (conv1): Conv2d(
          256, 256, kernel_size=(3, 3), stride=(1, 1), padding=(1, 1), bias=False
          (norm): NaiveSyncBatchNorm(256, eps=1e-05, momentum=0.1, affine=True, track_running_stats=True)
        )
        (conv2): Conv2d(
          256, 256, kernel_size=(3, 3), stride=(1, 1), padding=(1, 1), bias=False
          (norm): NaiveSyncBatchNorm(256, eps=1e-05, momentum=0.1, affine=True, track_running_stats=True)
        )
        (conv3): Conv2d(
          256, 256, kernel_size=(3, 3), stride=(1, 1), padding=(1, 1), bias=False
          (norm): NaiveSyncBatchNorm(256, eps=1e-05, momentum=0.1, affine=True, track_running_stats=True)
        )
        (conv4): Conv2d(
          256, 256, kernel_size=(3, 3), stride=(1, 1), padding=(1, 1), bias=False
          (norm): NaiveSyncBatchNorm(256, eps=1e-05, momentum=0.1, affine=True, track_running_stats=True)
        )
        (fc1): Linear(in_features=12544, out_features=1024, bias=True)
      )
      (1): FastRCNNConvFCHead(
        (conv1): Conv2d(
          256, 256, kernel_size=(3, 3), stride=(1, 1), padding=(1, 1), bias=False
          (norm): NaiveSyncBatchNorm(256, eps=1e-05, momentum=0.1, affine=True, track_running_stats=True)
        )
        (conv2): Conv2d(
          256, 256, kernel_size=(3, 3), stride=(1, 1), padding=(1, 1), bias=False
          (norm): NaiveSyncBatchNorm(256, eps=1e-05, momentum=0.1, affine=True, track_running_stats=True)
        )
        (conv3): Conv2d(
          256, 256, kernel_size=(3, 3), stride=(1, 1), padding=(1, 1), bias=False
          (norm): NaiveSyncBatchNorm(256, eps=1e-05, momentum=0.1, affine=True, track_running_stats=True)
        )
        (conv4): Conv2d(
          256, 256, kernel_size=(3, 3), stride=(1, 1), padding=(1, 1), bias=False
          (norm): NaiveSyncBatchNorm(256, eps=1e-05, momentum=0.1, affine=True, track_running_stats=True)
        )
        (fc1): Linear(in_features=12544, out_features=1024, bias=True)
      )
      (2): FastRCNNConvFCHead(
        (conv1): Conv2d(
          256, 256, kernel_size=(3, 3), stride=(1, 1), padding=(1, 1), bias=False
          (norm): NaiveSyncBatchNorm(256, eps=1e-05, momentum=0.1, affine=True, track_running_stats=True)
        )
        (conv2): Conv2d(
          256, 256, kernel_size=(3, 3), stride=(1, 1), padding=(1, 1), bias=False
          (norm): NaiveSyncBatchNorm(256, eps=1e-05, momentum=0.1, affine=True, track_running_stats=True)
        )
        (conv3): Conv2d(
          256, 256, kernel_size=(3, 3), stride=(1, 1), padding=(1, 1), bias=False
          (norm): NaiveSyncBatchNorm(256, eps=1e-05, momentum=0.1, affine=True, track_running_stats=True)
        )
        (conv4): Conv2d(
          256, 256, kernel_size=(3, 3), stride=(1, 1), padding=(1, 1), bias=False
          (norm): NaiveSyncBatchNorm(256, eps=1e-05, momentum=0.1, affine=True, track_running_stats=True)
        )
        (fc1): Linear(in_features=12544, out_features=1024, bias=True)
      )
    )
    (box_predictor): ModuleList(
      (0): FastRCNNOutputLayers(
        (cls_score): Linear(in_features=1024, out_features=2, bias=True)
        (bbox_pred): Linear(in_features=1024, out_features=4, bias=True)
      )
      (1): FastRCNNOutputLayers(
        (cls_score): Linear(in_features=1024, out_features=2, bias=True)
        (bbox_pred): Linear(in_features=1024, out_features=4, bias=True)
      )
      (2): FastRCNNOutputLayers(
        (cls_score): Linear(in_features=1024, out_features=2, bias=True)
        (bbox_pred): Linear(in_features=1024, out_features=4, bias=True)
      )
    )
    (mask_pooler): ROIPooler(
      (level_poolers): ModuleList(
        (0): ROIAlign(output_size=(14, 14), spatial_scale=0.25, sampling_ratio=0, aligned=True)
        (1): ROIAlign(output_size=(14, 14), spatial_scale=0.125, sampling_ratio=0, aligned=True)
        (2): ROIAlign(output_size=(14, 14), spatial_scale=0.0625, sampling_ratio=0, aligned=True)
        (3): ROIAlign(output_size=(14, 14), spatial_scale=0.03125, sampling_ratio=0, aligned=True)
      )
    )
    (mask_head): MaskRCNNConvUpsampleHead(
      (mask_fcn1): Conv2d(
        256, 256, kernel_size=(3, 3), stride=(1, 1), padding=(1, 1), bias=False
        (norm): NaiveSyncBatchNorm(256, eps=1e-05, momentum=0.1, affine=True, track_running_stats=True)
      )
      (mask_fcn2): Conv2d(
        256, 256, kernel_size=(3, 3), stride=(1, 1), padding=(1, 1), bias=False
        (norm): NaiveSyncBatchNorm(256, eps=1e-05, momentum=0.1, affine=True, track_running_stats=True)
      )
      (mask_fcn3): Conv2d(
        256, 256, kernel_size=(3, 3), stride=(1, 1), padding=(1, 1), bias=False
        (norm): NaiveSyncBatchNorm(256, eps=1e-05, momentum=0.1, affine=True, track_running_stats=True)
      )
      (mask_fcn4): Conv2d(
        256, 256, kernel_size=(3, 3), stride=(1, 1), padding=(1, 1), bias=False
        (norm): NaiveSyncBatchNorm(256, eps=1e-05, momentum=0.1, affine=True, track_running_stats=True)
      )
      (mask_fcn5): Conv2d(
        256, 256, kernel_size=(3, 3), stride=(1, 1), padding=(1, 1), bias=False
        (norm): NaiveSyncBatchNorm(256, eps=1e-05, momentum=0.1, affine=True, track_running_stats=True)
      )
      (mask_fcn6): Conv2d(
        256, 256, kernel_size=(3, 3), stride=(1, 1), padding=(1, 1), bias=False
        (norm): NaiveSyncBatchNorm(256, eps=1e-05, momentum=0.1, affine=True, track_running_stats=True)
      )
      (mask_fcn7): Conv2d(
        256, 256, kernel_size=(3, 3), stride=(1, 1), padding=(1, 1), bias=False
        (norm): NaiveSyncBatchNorm(256, eps=1e-05, momentum=0.1, affine=True, track_running_stats=True)
      )
      (mask_fcn8): Conv2d(
        256, 256, kernel_size=(3, 3), stride=(1, 1), padding=(1, 1), bias=False
        (norm): NaiveSyncBatchNorm(256, eps=1e-05, momentum=0.1, affine=True, track_running_stats=True)
      )
      (deconv): ConvTranspose2d(256, 256, kernel_size=(2, 2), stride=(2, 2))
      (predictor): Conv2d(256, 1, kernel_size=(1, 1), stride=(1, 1))
    )
  )
)
[01/11 17:02:39] detectron2.data.datasets.coco INFO: Loading /lunit/home/stevekang/decentAI/cellDetection/MCF7/LIVECell_dataset_2021/annotations/LIVECell_single_cells/mcf7/train.json takes 3.62 seconds.
[01/11 17:02:39] detectron2.data.datasets.coco INFO: Loaded 469 images in COCO format from /lunit/home/stevekang/decentAI/cellDetection/MCF7/LIVECell_dataset_2021/annotations/LIVECell_single_cells/mcf7/train.json
…
